practice/logistic_regression_model.ckpt (torch, 32359 bytes, 2 tensors)

weight f4 [10, 784]
000000 44 e8 38 3c d8 0a 6d 3c 60 73 c6 ba 0e 08 5a bc
       0.011285845 0.014467917 -0.0015140586 -0.013307584
000010 24 d6 97 bb cf d6 01 3d a8 6c aa 3b b0 1c 36 bb
       -0.004633682 0.031698998 0.005200941 -0.0027788095
000020 30 93 03 3c 76 fd b4 3c 88 48 a8 bb d2 62 47 bc
       0.008030698 0.022093516 -0.0051355995 -0.012169557
000030 5c 40 03 bd 4e 64 a5 3b 93 4d 5a 3c 4d cf 0b bd
       -0.0320438 0.0050473576 0.013324159 -0.034133244
000040 dc ac 39 bc 64 d8 e0 bb 32 c8 f3 3c 15 aa ee bc
       -0.011332717 -0.0068617333 0.029758547 -0.029133836
000050 78 0c c0 3b 88 93 b3 3b 28 24 7f 3c 30 07 35 bb
       0.0058608614 0.0054802336 0.015572585 -0.0027622692
000060 e6 96 1c bc f8 41 e2 bb d5 a3 c3 bc a3 81 0b bd
       -0.009557461 -0.0069048367 -0.023881832 -0.034059178
000070 20 1d c9 3a aa bf 32 bc e6 d6 f1 3c 66 46 a5 3c
       0.0015343763 -0.010909954 0.029521417 0.02017517
000080 61 2f 7b bb f2 19 4a 3a 19 52 0f bc 35 cf c5 3b
       -0.00383278 0.00077095546 -0.008747601 0.006036664
000090 ed 57 0a 3c 00 89 b7 3b 25 99 68 bc d0 78 67 bc
       0.008443815 0.0056010485 -0.014196669 -0.014127925
0000a0 d1 2f ac 3c 9c db b2 3b 3c 72 af bc 02 fd a1 bc
       0.021018894 0.0054583084 -0.021416776 -0.019773964
0000b0 ae 53 f4 3c 1d 71 84 3c 26 37 c1 bc 63 55 8f 3c
       0.029825058 0.016167218 -0.023585867 0.01749677
0000c0 4c 69 86 bc ad cf 95 bc 86 66 7c 3b a5 1e 9a 3c
       -0.016407631 -0.018287504 0.0038513257 0.01881344
0000d0 78 c8 c8 3b 77 a1 04 bd e8 a9 c3 3c d8 0d d1 bc
       0.0061274134 -0.032380547 0.023884729 -0.025519297
0000e0 f2 3c 10 bc ee 5d ec bc 6c c0 df bc 74 43 b2 3c
       -0.008803593 -0.028853383 -0.027313434 0.02176068
0000f0 fe 78 be 3b c3 16 9e bb 5f c5 91 3c ba 44 6f bc
       0.0058127632 -0.0048244908 0.01779431 -0.014603788
000100 7d d2 a5 3b a5 18 0e bc b4 1c 09 bc ec 7e 8e 3c
       0.0050604925 -0.008672868 -0.00836866 0.017394505
000110 52 d8 ae 3c d5 f1 af bb ac 56 a6 3c 08 a4 6e 3c
       0.021343384 -0.005369405 0.020305 0.014565475
000120 0b 84 47 bc f1 96 fc b9 f1 34 09 3d f1 e7 4b 3c
       -0.012177478 -0.00048177646 0.033497754 0.012445436
000130 7d aa 58 3c cc a4 da 3c e4 e3 a5 3c 70 e8 00 bd
       0.013224241 0.02668991 0.020250268 -0.03147167
000140 0d ee d4 3b 0f da 4c bc b8 f7 e7 bc 38 f5 44 bc
       0.0064981044 -0.012503161 -0.028316364 -0.012021355
000150 20 a8 5b 3b 70 7d fe bb b9 e4 46 bc 84 69 36 bc
       0.0033516958 -0.007766418 -0.012139493 -0.011133555
000160 08 1a 94 bc a9 5b e6 3c de c5 64 3c 23 b9 7c bc
       -0.018078819 0.028119879 0.013963191 -0.015424999
000170 e3 8a bc 3c 88 ec ec 3c 5e c8 62 bc 75 db b9 3c
       0.023015445 0.02892138 -0.013841717 0.022687653
000180 02 69 01 3c b2 07 35 3c a0 47 b0 3b 09 7b 06 3d
       0.007898571 0.011049198 0.005379632 0.03283218
000190 64 91 6b bb 5b 86 38 3c 8c 8e 39 3c c0 f9 f5 bc
       -0.0035944814 0.011262502 0.01132549 -0.030026317
0001a0 8d 93 de bc 8b a1 01 bd 98 9b fe 3b dd 84 b6 3c
       -0.027169967 -0.0316482 0.007770013 0.022280151
0001b0 ce ff 56 bc 05 7d 06 3d a1 63 cd 3c d2 49 c3 3c
       -0.013122512 0.03283407 0.02507192 0.023838911
0001c0 aa 60 5d bc 30 93 0e bd ff 35 9e 3c a3 0f 44 3c
       -0.013511816 -0.034808338 0.019312857 0.011966619
0001d0 8d 63 3b bc bb 61 0b 3d 57 7c e5 bc 74 03 b7 bc
       -0.011437309 0.03402875 -0.028013391 -0.022340514
0001e0 f5 e8 84 bc 0e 6a 91 3c fe 18 1e 3c 81 c5 c5 3c
       -0.016224364 0.017750766 0.009649513 0.024142029
0001f0 f2 b0 0e bd ae 91 ad bc b0 a8 a0 3c 5a b0 58 bc
       -0.034836717 -0.02118763 0.019611686 -0.013225639
000200 6f 2a ce 3c e8 30 00 bd be 16 62 3c cb 71 01 bd
       0.025166718 -0.03129664 0.0137993675 -0.031602662
000210 89 d2 cc bc ed 66 e6 bc d6 d2 80 3c 7c bb 86 bc
       -0.025002735 -0.02812525 0.015725534 -0.016446821
000220 86 0f ed bc 99 b8 e9 bc fd b6 2d bc ff a9 da 3b
       -0.028938066 -0.028530406 -0.01060271 0.006673097
000230 4c 6c be bc 2e 95 e8 3c 6e fb 97 bc 76 4f ea bb
       -0.023245 0.028391447 -0.018552508 -0.0071505858
000240 14 d2 54 3b 7d 91 ad bb dd 7a cc bc c1 17 52 bc
       0.003247385 -0.0052968846 -0.02496093 -0.012823046
000250 bc d0 a2 3c e2 fd 8c bc b1 af c3 bb 17 7b b2 bc
       0.019874923 -0.017210905 -0.005971872 -0.02178721
000260 75 d4 27 3c e2 6e f3 bc bd dc 5d 3c 75 ec 0b 3d
       0.010243525 -0.029715959 0.013541398 0.03416105
000270 e2 1b 5b 3c 82 56 08 bc 06 46 f0 3b f6 98 a7 3b
       0.013373347 -0.008321406 0.007332566 0.00511467
000280 72 a8 b5 bb 10 c5 05 bc 05 54 2d bc fb 98 8b bc
       -0.005543762 -0.008164659 -0.010579114 -0.01704072
000290 19 85 7d bc e0 d2 f1 bc 0e b4 5b bb 5a c5 9f bc
       -0.0154736275 -0.029519498 -0.003352407 -0.019503284
0002a0 84 cc 08 3c 48 d0 fa bb 40 6a 11 3c 5e b0 67 bc
       0.008349542 -0.0076542236 0.00887543 -0.01414117
0002b0 ab 02 99 3c bb 77 ae 3c b9 44 ae 3b 43 0c d9 3b
       0.01867803 0.021297326 0.005318251 0.006623776
0002c0 53 e5 67 bb 33 5f f2 bc aa b5 ba 3b 15 e0 0a bc
       -0.003538449 -0.02958641 0.0056979256 -0.008476277
0002d0 56 e5 51 bc 01 04 d8 3c fa 16 55 bc e3 61 08 3d
       -0.012811026 0.026369097 -0.013005966 0.033296477
0002e0 2e 1c d2 3c bb a5 89 3c 23 a9 3f 3d d3 09 2c 3c
       0.025648203 0.01680266 0.04679216 0.010500389
0002f0 97 8f a3 bc 5f 36 c8 bc 59 5b 18 3c e7 2f b0 bb
       -0.01996593 -0.024439989 0.009299123 -0.005376804
000300 b1 50 1c ba 16 a6 49 3b b1 4e b0 bb 9f f6 ba bb
       -0.00059629517 0.003076916 -0.0053804745 -0.005705669
000310 52 af 08 3c 05 fa 0c 3d ad 7b 8c 3c 97 9e ca bc
       0.008342581 0.034418125 0.017148817 -0.024733825
000320 6d b5 0d bd a9 0b d0 bc d2 03 fe 3c d3 63 c3 ba
       -0.03459685 -0.025396185 0.031007681 -0.0014907069
000330 a1 fe 03 3d da 49 5d bb a6 a6 6a 3c 3a f6 2a bc
       0.032225255 -0.0033765943 0.014321959 -0.010434682
000340 fa 60 0e bc 37 86 6c 3c 67 dc 2c bb 0b 22 dd 3c
       -0.008690113 0.014436296 -0.0026376487 0.026993772
000350 6c 29 02 3d 3a 2b 6c bb 75 74 b2 ba c8 bb 17 3d
       0.031777784 -0.0036036507 -0.0013615029 0.037044317
000360 af 66 9c bc 48 9e fc 3c 31 95 e8 bc d4 39 cf b9
       -0.019091932 0.030837193 -0.028391453 -0.00039525202
000370 87 60 9a ba 0f 79 72 3c 9a 94 2d 3c b5 8d 6c 3c
       -0.0011778035 0.01479937 0.010594511 0.014438082
000380 b9 17 9b 3c 47 01 ff bc bc 6c 6b 3c c2 61 ea 3c
       0.01893221 -0.031128539 0.014369186 0.028611068
000390 3e 37 71 bc 30 0d bf 3b 8b a9 8f 3c 6b ff b4 bc
       -0.014722643 0.0058304295 0.0175369 -0.022094449
0003a0 f4 79 c7 3b fa 4f 81 bb 9a 0c 84 3c f6 94 82 bc
       0.006087536 -0.0039463015 0.01611929 -0.01594017
0003b0 13 0c 94 ba e6 da d7 3c b2 07 5d bc b3 bd b2 3c
       -0.0011295102 0.026349496 -0.013490604 0.021818971
0003c0 57 dc 11 3d 6e de 0f 3d 89 28 26 3d fc b4 11 bc
       0.035610523 0.035124235 0.040566 -0.008893248
0003d0 c7 57 26 3d 81 a2 0f 3d ba 69 9c bb 80 de 11 3d
       0.040611055 0.035067085 -0.004773346 0.035612583
0003e0 ff 30 4b 3c 74 6a 3a 3b 8e 9a 01 3d b8 d6 f1 3c
       0.012401818 0.0028444799 0.031641535 0.029521331
0003f0 b4 ab 55 ba 8e 7d ef 3b 2f e0 d6 3c 65 fa cf ba
       -0.0008150891 0.0073086685 0.026229946 -0.001586747

bias f4 [10]
000000 18 17 c7 3c f0 74 36 3d 99 35 ca 3c f2 06 41 3c
       0.024303004 0.044545114 0.02468376 0.011781441
000010 cc 48 95 3c 5b 3e b8 3b 1d d3 eb 3c e3 45 13 3d
       0.018223189 0.0056226677 0.02878719 0.03595532
000020 db 54 8b bc 34 ad 37 bc
       -0.017008236 -0.011210728
