practice/model.ckpt (torch, 121077 bytes, 14 tensors)

layer1.0.weight f4 [16, 1, 5, 5]
00000000: 0bb9 df3d a1a8 59bb 92eb 133e 3964 acbd
00000010: e48f fe3d 6398 25bd 3a1c 103e 3c77 253d
00000020: ccdb f13c d307 55be 30a2 493d 8d9e 03bd
00000030: 35b6 6cbe b97a 3cbe 686a a3bd e598 c9bd
00000040: f5af 5ebe cd97 3abe c735 cd3d 9b3a ce3d
00000050: 0fbf 3ebe adf0 22be b3f4 0f3e 84ea b8bd
00000060: dec0 2d3e e6ed 153e 2e16 393e 891c 27be
00000070: 7fda dabd 52c8 9e3d 8c4f df3d de2e 77be
00000080: 84c5 1dbe b73b 5a3d dcb9 45bd b175 18be
00000090: 7b5f 25be 75ee 423d efd6 623d d0a2 2a3e
000000a0: 4b45 b1bd cadd 073e b845 ae3d 801b 1f3e
000000b0: 994f 1dbe 23b7 e6bc cea5 3b3e 5439 a8bd
000000c0: 3103 dfbc 92ad a3bd 9e53 cbbd 06ac afbd
000000d0: 701b 8dbc e33c 0a3d 7234 253e 1fa9 283e
000000e0: d0b5 443e 6eda 3b3e 78f5 603e 31ca 943d
000000f0: 5cb6 803c 85b3 89bb 532c fdbc f879 1ebe
00000100: fab2 6abe 84c0 c5bd 6934 04be 79cd e2bd
00000110: 86f8 1cbd f91e fbbc 5118 04bc 49b7 29bc
00000120: d465 dcbd ba64 adbd d064 873d 95fa 89be
00000130: 2129 aebd f05b 113c 45a6 54bc e822 c73d
00000140: 602a 67bd f1e8 21be 4a72 46be d6e6 ca3d
00000150: 2a69 403e 2749 9e3d 1625 d1bd 3d35 0cbe
00000160: b1f5 423e 997a bf3d ccea ff3b 59b6 7bbd
00000170: ec47 233d 78b5 503e 7c09 65bd 9ca0 283c
00000180: 421e 613d 2389 0f3d 9b37 fc3c c707 c7bc
00000190: d618 163d f48a b2bd 85e9 6cbd 2b87 71bd
000001a0: 84cb d2ba 1a0b 0a3e 3048 e4bd 8916 aebd
000001b0: 3f11 953d aab8 433e e91e 28bd d57b e73c
000001c0: b84b d8bd a822 c03d 3435 173e 4f23 b0bd
000001d0: 5e50 c2bd 9c9e 38be 20a3 333d 59c4 fa3d
000001e0: f94a c5bd 371c 913d 3429 5dbe 1b32 c5bd
000001f0: a803 6abd 53d8 f1bc b52e 903d 2a4a f1bd
00000200: 1144 90bc cab1 f13d 1835 9d3d 120f b1bd
00000210: 073a 4a3e a07e 8f3d 3a2b b63d dcfc 503e
00000220: f71e 303e 635b b83d bb58 0b3e 0761 973d
00000230: 8e0e 093d 3377 8dbb 2b58 173e 1a3f bcbd
00000240: d7bd 393e 42a3 223e d2f1 d13d 392f 213e
00000250: 8f6a 89bd 92b7 3d3e ba14 41be 9189 97be
00000260: ac0c 44be 81b8 62be 7c2f a3bd 7b3e 2abe
00000270: 0cad 883d e0d7 3f3d ffde a8bb 0e61 313e
00000280: a4be 43be 3356 983d 3d8e 3bbe 125e 443e
00000290: 8919 c63c 0c2c 343d 00a7 03be e8de 0e3e
000002a0: 21da b83d 84c3 6a3c cef9 9fbd b1f7 c53c
000002b0: 893c 91bd 8418 f03d 7184 f63d 6868 0a3d
000002c0: 0b5d 583e 260e 95bd 5e81 64be 773b 99be
000002d0: 6e2c a4be e651 87be e0d2 7dbe d7a8 ce3b
000002e0: 79ca fe3d 60d0 113d eb51 05be 0f47 1b3c
000002f0: 0230 dc3d ff91 82bb c60e 6d3d 455c 2d3e
00000300: f012 5dba 39e4 bb3d dcb6 3cbd 185e a9bd
00000310: d5df b9bb de66 18bd 1c23 d8bd 965d 9b3d
00000320: eef7 6dbc 3a99 d63d 21a6 103d b320 44bd
00000330: eefc 063e 3cb3 01be e767 493c a7be 4dbe
00000340: dd1c 14be 8901 a43d eb9f 353e 0d05 c0bd
00000350: a0dd 8fbd 4b69 50be 651c 5b3e 4f4e 523e
00000360: 9d1a 123d 8757 c6bd 906d b7bd d97e 21be
00000370: b810 f63b 5d6b 5d3e bd58 a4bd 0cc9 e4bc
00000380: 15b2 b63c 83c6 e13c 0e22 e13d 776b 13be
00000390: d9ae 22be 4aa3 92bd 99da dcbd c408 ee3d
000003a0: 1862 203e 179e debd a11a e13d ab46 09be
000003b0: 89cc e53d db4f 023e 7933 453e de63 07bd
000003c0: 8242 3a3d 449f 56be 6232 57bd 9827 813d
000003d0: de57 14bd 21b6 143e a027 bcbd c696 06be
000003e0: f99e dabc 6eb2 303d a1f4 de3d 99d3 f43c
000003f0: e4b5 cbbb f336 d13d 3be4 f3bc e51a 213e
0.10923966 -0.0033212083 0.14445332 -0.084175535 0.12429789 -0.04042853 0.14073268 0.040396914
0.029523753 -0.20803766 0.04922694 -0.032133628 -0.23116381 -0.1840619 -0.0797928 -0.098436154
-0.2174681 -0.1822197 0.10020023 0.10069772 -0.1862757 -0.15912123 0.14058189 -0.09029105
0.16968104 0.14641532 0.18074867 -0.16319479 -0.10686206 0.07753052 0.10903844 -0.24138972
-0.15407377 0.053279605 -0.048272952 -0.14888646 -0.16149704 0.04759069 0.055380758 0.1666367
-0.08655795 0.132682 0.085093915 0.15537834 -0.15362395 -0.028163498 0.18324968 -0.082140595
-0.027223201 -0.0799209 -0.09928058 -0.08577733 -0.017224997 0.033749472 0.16133288 0.16470765
0.19209981 0.18345043 0.21968639 0.072651275 0.015711956 -0.0042023086 -0.030904924 -0.15476215
-0.22919837 -0.0965586 -0.12910618 -0.11074347 -0.038322948 -0.030654417 -0.008062438 -0.01035864
-0.1076161 -0.08466478 0.06611025 -0.2694899 -0.085039385 0.008872017 -0.012979095 0.09723455
-0.056436896 -0.15811516 -0.19379535 0.0990731 0.18790117 0.077287965 -0.10212152 -0.13692184
0.19039036 0.093495555 0.0078099724 -0.061453197 0.039863512 0.20381725 -0.055917248 0.0102921985
0.054960497 0.035042893 0.030788234 -0.0242957 0.03664478 -0.087179095 -0.05783989 -0.058966797
-0.0016082381 0.13480797 -0.11146581 -0.08500392 0.0727868 0.19113412 -0.041045103 0.02825729
-0.10561317 0.0938161 0.14766389 -0.086004846 -0.09487985 -0.18029255 0.04385674 0.122444816
-0.096334405 0.0708546 -0.21597749 -0.096286975 -0.057132393 -0.029522097 0.07040159 -0.11781724
-0.017610582 0.11801489 0.076761425 -0.086454526 0.19748698 0.07006574 0.088949636 0.20408958
0.17199312 0.09001806 0.13608067 0.07391553 0.033461146 -0.004317188 0.14779727 -0.09191723
0.18138824 0.1588259 0.10251202 0.1574067 -0.067097776 0.18527058 -0.18855563 -0.29597142
-0.19145459 -0.22140695 -0.07968041 -0.16625397 0.06673631 0.046836734 -0.0051535363 0.1732218
-0.19115692 0.07438316 -0.18315978 0.1917651 0.024182098 0.04398732 -0.12856674 0.1395222
0.0902598 0.014328841 -0.07811318 0.02416596 -0.07091624 0.11723426 0.1203698 0.033790976
0.21129243 -0.07278089 -0.22314975 -0.2992818 -0.32065147 -0.2642967 -0.24787474 0.0063067484
0.12440962 0.035599113 -0.1301953 0.009477391 0.10751344 -0.0039846892 0.057875417 0.1692973
-0.0008433303 0.091743894 -0.046072826 -0.082699 -0.005672435 -0.037207477 -0.105535716 0.075862095
-0.014524443 0.104784444 0.035314683 -0.047882747 0.13182423 -0.12666029 0.012292839 -0.2009226
-0.14464135 0.08008105 0.17736785 -0.09375963 -0.070246935 -0.20352666 0.2139755 0.20537685
0.03566991 -0.09684663 -0.08956444 -0.15771045 0.0075093172 0.21622987 -0.08024738 -0.027927898
0.022301713 0.027560478 0.109928235 -0.14396463 -0.15887012 -0.07160051 -0.10783882 0.11622766
0.1566242 -0.10869997 0.10991407 -0.13405864 0.112206526 0.12725775 0.19257917 -0.033054225
0.045473583 -0.20959193 -0.052538283 0.0630638 -0.03621661 0.14522602 -0.09187245 -0.13143453
-0.026687132 0.043138914 0.10886503 0.029886054 -0.0062167514 0.10215559 -0.029771915 0.15732916

layer1.0.bias f4 [16]
00000000: cb93 1c3b 18f7 4abb 8475 453e 1794 b6bd
00000010: 5e59 f6bd 7af8 733c 8bf6 5b3d 8918 84be
00000020: e2a9 3f3d 8918 bbbd 5a35 5cbd e83a 423e
00000030: fd2d 0d3e 4841 18bb d975 ca3d 360d 04be
0.0023891802 -0.0030970033 0.1928311 -0.08914965 -0.12028764 0.014890784 0.05370192 -0.2579997
0.046792872 -0.09135539 -0.053761818 0.18967783 0.13787074 -0.002323227 0.09885759 -0.12895665

layer1.1.weight f4 [16]
00000000: b3b2 913f 6b55 853f c907 773f eda7 6a3f
00000010: 48e1 973f 8ac0 313f a608 8a3f 64ea 923f
00000020: 08d4 8c3f 04bf 723f 9c41 6e3f 4b15 813f
00000030: 097d 563f 169b 773f b283 7b3f 8484 9a3f
1.138266 1.0416692 0.96496254 0.91662484 1.1865625 0.69434416 1.0783889 1.147778
1.1002207 0.94822717 0.9306886 1.0084623 0.8378454 0.9672102 0.98247826 1.207169

layer1.1.bias f4 [16]
00000000: b8b2 55be b8f7 56be 72ff 1fbe bdc7 76be
00000010: 1c3d 19be 168b 98be 927e 47be c00f b9bd
00000020: ee12 f83c 7165 53be 314d 0ebe b562 07be
00000030: f39d 6abe 8d47 8abe f0c8 2dbe 4ccd 32be
-0.20868957 -0.20992935 -0.15624788 -0.24099632 -0.14964718 -0.29793614 -0.19481876 -0.09036207
0.030282464 -0.20644166 -0.13896634 -0.13221247 -0.22911815 -0.27007714 -0.16971183 -0.17461127

layer1.1.running_mean f4 [16]
00000000: 88cc a7bd b15f b4bb 7e48 3a3e b642 babd
00000010: 4ff4 30be 380d 843e 7127 13bd 4972 c2be
00000020: f554 003d 47c4 c9bd 5c54 46bd d038 293e
00000030: f0e0 823e b134 03bd bac9 b43d 2ff0 72be
-0.08193308 -0.0055045714 0.18191716 -0.09094755 -0.17280696 0.25791335 -0.035926286 -0.37977818
0.03133102 -0.0985189 -0.048420295 0.16525578 0.2556224 -0.032032672 0.08827539 -0.23724435

layer1.1.running_var f4 [16]
00000000: badb 813d 34db 923c 0d1e 0d3d fada 573d
00000010: d47e 163d ec6e 213e cb2f b33d b815 8a3d
00000020: 9a80 bc3c ece3 0f3c 1a72 223d bcd5 233d
00000030: 5006 1f3d d38b fd3c 72c1 bd3c 0d35 b73d
0.06340738 0.01792679 0.034452487 0.052699067 0.036742046 0.1576497 0.0874935 0.06742424
0.02301054 0.008782368 0.039659597 0.039998755 0.03882438 0.030950462 0.023163531 0.089456655

layer2.0.weight f4 [32, 16, 5, 5]
00000000: 82f2 893d d948 c2bd 3590 a8bc c562 7bbd
00000010: 37a7 d8bc f131 6abc 8759 adbd fc98 e3bb
00000020: 9578 613b 1fb6 a63c 5390 c2bc 71db be3b
00000030: c3ab 3a3c 2496 95bd b2f7 c8bd 7fca 0cbd
00000040: 5359 0abe 535a 15be 45d1 09be c365 cbbd
00000050: 87ab b0bd ef29 f1bd 2f71 b2ba 82d5 7d3b
00000060: 6bb7 ba3b 7648 cbbd 7489 87bd d157 e73c
00000070: 942e b43d 3e12 bf3c 3956 1fbc 6051 bf3d
00000080: 5a97 3e3d 5fe0 7d3d a2c5 993c 852f 643d
00000090: fbfc 263d e003 6b3d 1264 4f3b 9ca5 bf3c
000000a0: d0a6 123d f39c 0e3d 203a 063c bc95 27bd
000000b0: 9dec a43b 6145 d2bd c147 273c 86da 09bb
000000c0: 3015 8f3d e603 9f3d 2a62 ae38 5fbe a1bc
000000d0: b5ad 91bd 2986 a4bd 57b5 67bd 2fa7 16bd
000000e0: f52c 02bd ca05 4fbd 77d1 ecbc 5139 28bd
000000f0: a87b 79bd ae0d 933c bc51 543c 448f be3c
00000100: 7535 4ebd af1b f13c 14a6 cb3c 7c10 59bd
00000110: 3b53 bbbc 2fb6 93ba 1818 f1bc 684a 0c3d
00000120: ea5b 963c d47d b0bb 0b24 a33d 422f f4bc
00000130: 4a9b 9f3c ffc2 3b3d d170 773c c16b 553d
00000140: abf9 7c3d 148b 65bc a58a 783d 6b99 ae3c
00000150: 8744 a03d 116b d43d c955 2a3c 9556 c23c
00000160: 7276 a43c 25ea 723c d199 813d 23b8 41bc
00000170: cf7a b2bc e98e e63b 097e 3f3d 686f b53c
00000180: aff1 a5bc 47d2 4d3d d852 7cbb 3cb0 4bbd
00000190: b928 883d af54 803c b840 cdbc 018a 1dbc
000001a0: e5f1 6cb9 d2bc ad3c 8776 aabd 0228 95bd
000001b0: 8f72 71bd 9a9f fdbc 3048 3d3c 25a7 d4bd
000001c0: 10fc f33c 31f1 813c 713d 10bc 0791 cabb
000001d0: 80be 043d c77a 46bb 7559 583c a4aa d1bb
000001e0: be84 853b 5a9b d93c 9f73 b1bd 0f06 e9bd
000001f0: 2086 b7bd 9721 8bbc 8a28 68bd acb6 d3bc
00000200: 8e44 0cbd abd2 c9bd 642b 31bd a100 483b
00000210: f771 e6bc 85eb 7fbd 6253 8ebc f761 523c
00000220: c8ca d8bc 8c95 a73c 1fae 92bc a06d 6fbd
00000230: 8f2d a33c 0d6b 82bc 440f 28bd 0c78 d5bc
00000240: 4631 783c 0113 833c 9749 273d 931c 1c3d
00000250: 29fb f7bc d57f 9b3c e519 eebb f113 a8bc
00000260: 2713 60bd 6e10 1a3d fd9b 923d 806b 0d3c
00000270: 6738 3b3c 73c7 acbc 7b6a 363d 4591 7a3d
00000280: 6044 bd3c cfdd 3cbd 5630 d73b 86dd 79bd
00000290: 6aec 80bd c52a 6d3d d758 88bc 8632 0fbd
000002a0: bea5 89bd 8d01 b9bb 1d54 8bbc 5755 a5bd
000002b0: 7eee 56bd 4ebd 8fbd 7e91 04bd 70cc eb3b
000002c0: 8636 efbd 717e 81bd d0bd e6bc 6e36 0b3d
000002d0: b975 d9bc 70c7 00be 7de3 80bc 9e88 9cbd
000002e0: a571 2cbd 84f7 77bd aae0 16bc f5af 13bd
000002f0: 7b0b 9d3c d2c4 1fbd b228 02bd f370 4fbd
00000300: 557f dfbc e458 14bd e646 ebbc 76b4 0cbe
00000310: 1d98 a0bd 0dc0 4dbc 2023 75bd 616d 20bd
00000320: fe6e 663d 58c7 cf3d 4abd 8b3b 4489 efbc
00000330: 75f6 113d 541e 76bb bbf4 123c 25b9 d93c
00000340: 4a1c 49bd fd8c 0d3d 0a1a febc 6c83 68bc
00000350: 9ea7 5c3c d1b0 2e3d 5077 3e3d 9b2d dcbc
00000360: 297c 4c3d 9794 053d 2016 5f3d 9f47 91bb
00000370: ce05 783d 6d4c b53c c693 043d 91b1 a83b
00000380: 510e 9ebd be47 06bc d7bb ff3b 4b97 b83c
00000390: 4d08 c03b 22e6 453d 7ca2 23bd 2f32 013c
000003a0: 71cc 263c 3bca 0abd 5cf0 b03d 0355 80bd
000003b0: a358 1a3d 970f 303d 5c74 27bd 5232 a43c
000003c0: e539 74bd 2b70 77bb ca4d 5d3d 36eb ec3c
000003d0: 75a6 b03d 725e 5bbb 38e9 ac3d b332 e8bc
000003e0: a3d7 8d3d 47b3 2c3d e0f0 c4bc 8dc8 93bc
000003f0: 9f41 39bd 08e2 61bd 6186 9f3d 56d8 06bd
0.06735708 -0.09486551 -0.020576576 -0.06137349 -0.026446922 -0.0142941335 -0.084643416 -0.0069457274
0.0034404148 0.020350514 -0.02375046 0.0058244993 0.01139349 -0.07304028 -0.09812869 -0.034372803
-0.13510637 -0.14585237 -0.13458736 -0.09931519 -0.08626466 -0.11775576 -0.0013614054 0.0038731997
0.0056981347 -0.0992593 -0.06618014 0.028240116 0.087979466 0.023324128 -0.009725147 0.09341693
0.04653106 0.061981555 0.018770996 0.05570938 0.040768605 0.057376742 0.003164534 0.023394398
0.035803616 0.034817647 0.008192569 -0.040914282 0.0050330893 -0.10267139 0.010209979 -0.002103479
0.06986463 0.077644154 8.315251e-05 -0.019744096 -0.0711321 -0.080334015 -0.056569424 -0.036780532
-0.031781156 -0.05054263 -0.028908474 -0.041070286 -0.060908943 0.017950859 0.01295894 0.023261674
-0.05034395 0.029432146 0.024859466 -0.052994236 -0.022866836 -0.0011269505 -0.029430434 0.034250647
0.018354375 -0.0053860936 0.07965859 -0.02980769 0.019483227 0.04584026 0.015102581 0.052104715
0.06176154 -0.01401021 0.060679097 0.02131339 0.078255706 0.10371984 0.010396429 0.023722926
0.02007601 0.014826332 0.06328166 -0.011823687 -0.021787075 0.007036079 0.046751056 0.02214785
-0.020256845 0.050249364 -0.0038501527 -0.049728617 0.06648392 0.01566538 -0.025055274 -0.009615422
-0.00022596827 0.0212082 -0.083233885 -0.072830215 -0.058947142 -0.030959893 0.011552855 -0.10383443
0.029783279 0.01586208 -0.008803711 -0.0061818394 0.032408237 -0.0030285583 0.013204922 -0.006398516
0.004074662 0.026563335 -0.08664631 -0.11378109 -0.08961129 -0.01698379 -0.056679286 -0.02584394
-0.034245066 -0.09854635 -0.04325427 0.0030517953 -0.028130515 -0.06248047 -0.017373744 0.012840739
-0.026463881 0.020457052 -0.017905293 -0.058454156 0.019919185 -0.015920186 -0.041030183 -0.02605822
0.015148466 0.016000273 0.040841665 0.038113188 -0.03027113 0.018981854 -0.0072662705 -0.020517321
-0.054705765 0.037613325 0.07158659 0.008631587 0.011427022 -0.021091199 0.04453514 0.061173696
0.023103893 -0.04610997 0.0065670414 -0.061002277 -0.062950924 0.057902116 -0.016643925 -0.034960292
-0.06721066 -0.005645937 -0.017007882 -0.08072918 -0.052473538 -0.07018529 -0.032365315 0.0071960017
-0.116803214 -0.06322945 -0.028166682 0.033987455 -0.026545392 -0.1257608 -0.015733475 -0.07643245
-0.042100567 -0.060538784 -0.0092088375 -0.036056478 0.019170513 -0.03900606 -0.03177709 -0.050644826
-0.027282396 -0.036217585 -0.02872033 -0.13740715 -0.07841513 -0.0125579955 -0.05984795 -0.03916681
0.056258194 0.10145444 0.0042645084 -0.029240258 0.03563543 -0.0037554698 0.008969481 0.026577542
-0.049099244 0.034558285 -0.031018276 -0.01419149 0.013467697 0.042649094 0.046500504 -0.026877215
0.049923096 0.03261241 0.05446446 -0.0044335867 0.06055241 0.02213117 0.03236749 0.0051481207
-0.077175744 -0.008195816 0.0078043747 0.02253308 0.0058603645 0.048315175 -0.03994988 0.0078855
0.010180579 -0.03388427 0.08639595 -0.06266215 0.037682187 0.042983618 -0.040882453 0.020043526
-0.059625525 -0.0037756066 0.054029264 0.028920751 0.08625499 -0.0033473042 0.084429204 -0.028344488
0.06925895 0.04216316 -0.02404064 -0.018039966 -0.045228597 -0.0551472 0.077893026 -0.032921158

layer2.0.bias f4 [32]
00000000: f213 ddbc 5835 babc 96d7 f1bc 7bd5 7fbd
00000010: e060 b13c 4819 79bd dca9 a2bb 0152 a13c
00000020: 2e70 15bd b819 813b c73e 913b 8cc9 473d
00000030: f0c9 b23c ff9f 9ebd cf5d 63bc 1014 85bd
00000040: ace1 7fbc a57a 263d 3a0c 9c3d 9294 72bc
00000050: 677f 653c 1dad 7dbd 2f2d 1d3d 1797 8f3d
00000060: 1267 6ebc 37b1 13bd 7d7d 013d 7812 92bd
00000070: 0732 d2bc d5b4 2fbc fd0a 9f3d 0412 f13c
-0.02698705 -0.022730514 -0.029521745 -0.06245945 0.021652639 -0.060815126 -0.0049640965 0.019692423
-0.036483936 0.0039398335 0.0044325325 0.048776194 0.021824807 -0.077453606 -0.013877346 -0.06497967
-0.015617769 0.040644307 0.076195195 -0.01480593 0.014007426 -0.06193267 0.03837317 0.0701124
-0.014550941 -0.036057677 0.031613816 -0.07132429 -0.02565862 -0.010724266 0.07765768 0.029427536

layer2.1.weight f4 [32]
00000000: 1b12 8e3f 58e5 8f3f 5f41 993f d1d8 903f
00000010: cc44 993f fa82 8f3f 36bc 983f d334 8f3f
00000020: 6dcf 943f 0e8b 883f c8c4 8b3f 59a2 933f
00000030: b409 963f a918 8e3f 5e89 913f 764f 8a3f
00000040: 5b64 943f 7d19 913f 1b0b 993f 099f 893f
00000050: d711 943f bc10 943f 8b28 943f f5bd 923f
00000060: 0606 863f e54a 893f 92a7 943f e438 953f
00000070: 24d1 943f 138a 943f 7004 933f 9b47 7f3f
1.1099275 1.1241865 1.1973075 1.1316167 1.197412 1.1211846 1.1932437 1.1187996
1.1625801 1.0667436 1.0919428 1.153392 1.1721711 1.1101276 1.1370046 1.08055
1.1593126 1.1335903 1.1956514 1.0751659 1.1567944 1.1567607 1.1574873 1.146422
1.0470588 1.0725981 1.1613638 1.1657987 1.1626325 1.1604637 1.1485729 0.99718636

layer2.1.bias f4 [32]
00000000: 7c8f 07be 5721 20be 35f6 54be 648b 4bbe
00000010: 4d71 19be 1410 12be b737 65be e858 a4bd
00000020: 2b33 38bd 2d7d 35be 6097 5dbe 2c59 dabd
00000030: 1ea7 03be 0b77 d6bd 7a58 3bbe 075c 0ebe
00000040: 5190 edbd 8059 f0bd d0b7 16be 7b99 62be
00000050: 5f49 76bd cf2f 01be 82ba 11be b04e 78bd
00000060: a99c 5dbd f4b8 4cbe 4d82 d1bd f229 eebd
00000070: b3ed 3fbe eb2e 40be 10e5 19be bee9 8fbe
-0.13238329 -0.15637718 -0.20797046 -0.19877392 -0.14984627 -0.14263946 -0.22384535 -0.0802477
-0.044970673 -0.17723532 -0.21639776 -0.106615394 -0.12856719 -0.104719244 -0.1829547 -0.13902293
-0.11599792 -0.11735821 -0.14718556 -0.2212886 -0.060128566 -0.12615894 -0.14231303 -0.060621917
-0.05410448 -0.19992429 -0.10229931 -0.11629094 -0.18743019 -0.18767898 -0.15028787 -0.2810802

layer2.1.running_mean f4 [32]
00000000: 48cb 0abf 8f10 1c3f e0b6 99be f199 d7be
00000010: 4806 60be f9bb 1cbf 932c ea3e f9c0 95be
00000020: bf94 923e 7fbe 37be d722 a3be e158 c3bc
00000030: bf8a 2fbd 9848 52be 931f 52be cd74 ddbe
00000040: e52e 503f 93a7 133e ca3b e2be db64 11bf
00000050: e942 753e d90c cd3e f79b 013e df29 183f
00000060: d3a1 813e 41f2 e53d e6be 2abe a637 3abf
00000070: 0a04 803e d455 4bbf cbdc 0c3f 3885 293e
-0.5421643 0.60962766 -0.30022335 -0.42109635 -0.21877396 -0.61224324 0.45737132 -0.2924879
0.2862911 -0.17943762 -0.31862518 -0.023846092 -0.042856928 -0.20535505 -0.20519857 -0.43253174
0.81321555 0.14419393 -0.4418624 -0.5679452 0.23951305 0.40048864 0.12657152 0.5943889
0.25318775 0.11227847 -0.16674384 -0.7274116 0.25003082 -0.7942784 0.55024403 0.16554725

layer2.1.running_var f4 [32]
00000000: ce28 473f 9618 933f d9a6 8c3f 2938 b23f
00000010: 5dd5 9e3f db1e 9c3f 33f7 9b3f d03c 503f
00000020: c404 993f 2242 813f f86c 8e3f b126 923f
00000030: 6ee5 6a3f c045 8a3f 6302 ec3f eb17 493f
00000040: d6ee 8a3f 2bed 833f f2cf c83f 3dd4 c53f
00000050: bbdd 703f 2cfe 833f 3931 0440 61a6 9b3f
00000060: 3db5 cc3f b358 9e3f 38e9 7e3f 5adb 053f
00000070: ed0e a63f ae62 333f 4c30 663f 8f2c 873f
0.7779664 1.1491878 1.0988418 1.3923389 1.2408863 1.2196916 1.2184814 0.8134279
1.1954579 1.0098307 1.1127005 1.1418058 0.9175633 1.0802536 1.8438228 0.7855212
1.0854137 1.0306753 1.568846 1.5455395 0.94088334 1.0311942 2.0655043 1.216015
1.599281 1.2370819 0.99574614 0.5228783 1.2973305 0.7007245 0.89917445 1.0560473

fc.weight f4 [10, 1568]
00000000: 9603 aeba b647 e1bc f44c 0bbd 453c 7abd
00000010: 576f 7c3c 42ae 3cbc ce6c 2fbb edbc 00bd
00000020: 1c12 3dbd ea2a 2fbd a078 903c bb75 02bd
00000030: 4c66 51bc 2b4a 7f3c 5534 80bd b6ce c1bd
00000040: 1ded a4bd 39fb e33c 044e 973c 63b8 74bd
00000050: eb67 903d d17b 183c 607f f2bc 61db 933d
00000060: 4bbb bb3d 33ff 53bd 4d36 35ba 320d e9bb
00000070: 022c 703c 4252 3d3c d81d 1e3d 2cae 8f3c
00000080: 4f97 40bc ce6c 27bb 19c4 603b 6692 c53c
00000090: 45ae 063d cca6 333d 139c 9b3c 51de c1bd
000000a0: 6ad7 29bd c16e 04bd c8f9 943c 170d 253c
000000b0: fec5 ec3b 56e0 45bc b354 15be e22e c3bd
000000c0: 2b36 38bd 446a 95bd e695 4ebd e4f0 94bd
000000d0: 7958 43bd 2826 283d cb7d 29bd e8b9 c43a
000000e0: 695b c0bc dd50 43bc 6b8f 11bd a852 a7bb
000000f0: 8403 63bd 60c9 abbd 0ea3 8938 33df 4e3d
00000100: 4ad9 06bc 32fb 113d 1573 4a3d f123 6f3c
00000110: 0535 833c 60ac e43c b708 0f3d 8e72 b13c
00000120: a54a b8bc 4426 6d3c a01a 103c 9c1a 06bc
00000130: 8e8d 713c da47 eabc eb8d c4bd 9ee2 14bc
00000140: 716a 283d e0ba 40bd 0fb0 f43a e682 0c3c
00000150: 73a3 6fbd e0e1 c6bd 4f55 8fbb b191 c2bc
00000160: 86fc 81bd 9980 c23a cbac 623d d1a7 debd
00000170: cde7 82be a197 a4bc d51e b2bc c776 213a
00000180: 5975 1cbd ee05 52bd 8c8f 32bd 6fdf 193d
00000190: f603 ad3c 2d74 08bd a707 5abb 7e5b 483d
000001a0: 4eca d6bc e8fc cebc 77dc a23c 995d 483c
000001b0: 94a8 9f3d 168a b03c b5e0 cf3b b919 9e3d
000001c0: 71d8 11bd b7eb 74bd 4a3c e83c 22c2 ff3b
000001d0: 8276 ee3b d704 333d d97e a93c 1ca3 41bc
000001e0: afef 46bd 9b1a 5dbd 08ee 0ebd 1716 01be
000001f0: a86c 853b 6711 933d 15c5 0bbd 82c0 3abd
00000200: b270 283d 53ec 1fbd 909a 18be 352e 03bd
00000210: 8f02 643d 937e a23c 6c71 06bd 4fe8 5e3d
00000220: 4964 433b 70d1 80bc c3df acbc 1fcc a8bc
00000230: 4122 d9ba 2b41 40bd 594c d239 d7c0 463d
00000240: 93f6 683d 6bed 2e3d 66f8 bebc fd8d 193d
00000250: 10ac b6bd 5d6f c4bd 0c96 48bd b9c4 35bd
00000260: f110 613b db79 233d 8cc5 85bd f5da 23bd
00000270: 5d28 9c3c 7055 dfbc 9a9e 03bc aa9d 5b3c
00000280: 1f5d 9f3d 057d 68ba 6c7b 9e3c 6b70 9b3d
00000290: dc47 923b 1eb5 abbc 3c43 7f3d 6f74 623d
000002a0: 33ff 653d d088 823d 72d3 873d f830 a5bd
000002b0: d2c9 f1bc 3c4a 343d 122d 4c3d 34b1 e03c
000002c0: 8116 8f3a 1646 9cbd 9892 e7bd c1d2 643c
000002d0: 6049 29bc 02c5 94bd ef4a 2abd d98a acbd
000002e0: f037 f9bd 3278 69bc 48a8 a03d dd9f 50bd
000002f0: 0129 ccbd 7015 08bd 8457 92bb 93b1 cfbc
00000300: 49b0 253d eef6 f53c 453f 02be 86ae dbbc
00000310: 35a0 e83c 6ce4 ddbc 503e 12bd 5a2c 05bc
00000320: e342 88bc b1d8 19bd b681 a8bc ce6d c9bc
00000330: 172b e2bc f744 3cbc 91e3 2c3c 8b0f 573c
00000340: d604 fdba 1c48 97bc 67e4 a63c e673 943c
00000350: a0ec 77ba e4d1 553b 8461 563d d307 683d
00000360: d4bd 063e 1f5f 4c3d 32d2 04bc 57db 9fbd
00000370: ba36 bbbc a021 b23b 2164 4c3d 7c47 c63d
00000380: 703f babc f1dd 003d f023 25bd 134a 9ebd
00000390: 0724 fdbd e3ee 43bd 8914 3c3d e176 aa3c
000003a0: c211 f83c e059 13bc 2bab ebbc 5f68 3cbd
000003b0: 55f6 a3bd aef5 91bd b306 813d 6f40 4cbd
000003c0: 8349 8c3b 09dc 153c 75b9 483c 8ada 96bd
000003d0: bffa fcbd 7c5e 413d c14b 2d3d 5adc 473c
000003e0: 23d8 52bb 2dba 10bb ac23 07bb 70b7 613d
000003f0: cee5 08bc 8c7a 0c3d 1b54 c23b 7403 f7bc
-0.0013276215 -0.027500015 -0.034008935 -0.061092634 0.015407405 -0.011516156 -0.0026767734 -0.031430174
-0.04615985 -0.042765535 0.017635643 -0.031850558 -0.012780737 0.015581648 -0.062599815 -0.09463255
-0.08053038 0.027829753 0.018469818 -0.059746157 0.07051071 0.009306864 -0.029601753 0.072195776
0.09166583 -0.05175705 -0.00069126935 -0.0071121687 0.01465893 0.011555256 0.03860268 0.017539106
-0.011754825 -0.002554703 0.003429657 0.02411766 0.03288104 0.04386024 0.01899532 -0.094662316
-0.0414652 -0.032332186 0.018185511 0.010073922 0.007225751 -0.012077412 -0.14583091 -0.095304266
-0.044973534 -0.07295659 -0.050435923 -0.07272509 -0.047691796 0.041052014 -0.04137973 0.0015009018
-0.023481088 -0.011921135 -0.035537165 -0.005106289 -0.055423275 -0.083880186 6.5630404e-05 0.050505828
-0.008230517 0.03563995 0.049426157 0.014595971 0.016016493 0.027914226 0.03492042 0.02166107
-0.02249653 0.014474455 0.00879541 -0.008185055 0.014743222 -0.028598715 -0.09597381 -0.009087233
0.041117135 -0.047053218 0.0018668192 0.0085761305 -0.058505487 -0.09711051 -0.0043741832 -0.023751112
-0.06346993 0.001483935 0.05534057 -0.10871852 -0.25567475 -0.020091834 -0.021743217 0.0006159362
-0.03819785 -0.051275186 -0.04359393 0.0375666 0.021120053 -0.03331392 -0.0033268721 0.04891538
-0.026219513 -0.02526708 0.019880516 0.012229347 0.077958256 0.02155022 0.006343926 0.0771975
-0.035606805 -0.059795108 0.02834906 0.007805125 0.007277311 0.043705788 0.020690368 -0.011818673
-0.048568424 -0.05398045 -0.034894973 -0.12606083 0.0040717907 0.071810536 -0.0341235 -0.045593746
0.0411231 -0.039043736 -0.14902711 -0.03202649 0.055666503 0.019835746 -0.03282301 0.054420765
0.0029814413 -0.015724868 -0.021102792 -0.020605145 -0.0016565995 -0.04693715 0.00040111205 0.04852375
0.056875776 0.04270689 -0.023311805 0.037488926 -0.08919537 -0.09591553 -0.04897122 -0.044377062
0.0034342373 0.039911132 -0.0653182 -0.040003736 0.019062215 -0.02726242 -0.008033419 0.013404289
0.07781433 -0.0008868727 0.019345962 0.075898014 0.0044641327 -0.020960387 0.06231998 0.05528682
0.05615158 0.06373751 0.06632127 -0.08065981 -0.02951518 0.044016108 0.04984767 0.027428247
0.0010916741 -0.07630555 -0.113072574 0.013966263 -0.010332435 -0.07264139 -0.04157537 -0.084249206
-0.12168872 -0.014249848 0.07844597 -0.050933708 -0.099687584 -0.03322357 -0.004465999 -0.025353229
0.04045132 0.030024972 -0.12719448 -0.026816618 0.028396705 -0.02708646 -0.035703957 -0.00812825
-0.016633457 -0.03756017 -0.020569663 -0.024588492 -0.027608437 -0.011491052 0.010552303 0.013126264
-0.0019303809 -0.018467002 0.020372583 0.018121671 -0.0009457562 0.0032626325 0.052339092 0.056648087
0.13158351 0.049895402 -0.008106755 -0.07805508 -0.022853244 0.0054361373 0.049900178 0.09681603
-0.022735327 0.03146166 -0.040317476 -0.07728972 -0.12360387 -0.047835242 0.04591802 0.020808639
0.030281905 -0.008993596 -0.028768143 -0.045997974 -0.080059685 -0.07126938 0.06300106 -0.049866136
0.004281224 0.009146699 0.012251248 -0.07365902 -0.123525135 0.047209248 0.042308573 0.012198532
-0.0032172285 -0.0022083626 -0.0020620627 0.05510658 -0.008355571 0.034296557 0.0059304363 -0.030153014

fc.bias f4 [10]
00000000: c9a1 29ba d9d6 6d3d f86c bcbc bd53 533c
00000010: fdbf 3d3b a20c a53c d95d e2bb c379 b3ba
00000020: 9a56 41bc 02b4 2e3c
-0.0006470946 0.058066223 -0.02300118 0.012898383 0.0028953545 0.020147625 -0.00690816 -0.0013692904
-0.011800433 0.010663034
