practice/sin_model.ckpt (torch, 1823 bytes, 3 tensors)

fc1.weight f4 [30, 1]
00000000: 620e 9fbe b157 f2be 0e52 dbbe 03e6 a23f
00000010: 26b5 27bf 8931 f1be ccca 513f 00fb 2e3c
00000020: 5c1d 88bf 4b6c 99bf 36ea 693f 6bca 62bf
00000030: 3021 18bf e0b2 b53f 9b02 b13e b1b9 153d
00000040: 61a1 83bf caa7 8ebf 6fd5 863e c25a 563f
00000050: c022 e3bc 54a0 4ebf f00d 0d3f 7d1c 113f
00000060: 0128 23bf 9a8c b23e 861e 553f 34bb 4dbf
00000070: 0c0a 2ebf f2b1 50bf
-0.3106566 -0.47332528 -0.4283604 1.2726444 -0.65510786 -0.47108105 0.8195007 0.01067996
-1.063396 -1.1986173 0.91373 -0.88590115 -0.5942564 1.4195213 0.345723 0.036554042
-1.0283624 -1.1144955 0.26334712 0.83732235 -0.027726531 -0.8071339 0.5509939 0.56684095
-0.63732916 0.34872895 0.832497 -0.80363774 -0.6798408 -0.81521523

fc1.bias f4 [30]
00000000: 9a32 303f ebfb 843f f89f 4d40 5cc7 8cbf
00000010: c696 7dbf 8fe0 17c0 0958 8c3e 9872 68bf
00000020: ba5a 05c0 6d24 16bf cc97 89c0 d379 d03f
00000030: 3e39 2cc0 8772 1340 bcc0 22c0 bd95 57be
00000040: 7dfd fe3f 8064 b1bf c6f3 4d3e bee3 83bf
00000050: 9a30 06bf 82cb b3bf a839 1c3f 8ffb 8640
00000060: ed5b cdbf 0532 383f b8c0 4040 a1c4 c93f
00000070: 071b b53f 4344 3ebf
0.6882721 1.0389379 3.2128887 -1.099834 -0.99058187 -2.373081 0.27410915 -0.90799856
-2.0836625 -0.5864933 -4.29978 1.6287178 -2.6909938 2.3038652 -2.5430136 -0.21053214
1.9921108 -1.3858795 0.20112523 -1.0303876 -0.5241791 -1.4046481 0.61025476 4.218208
-1.6043679 0.71951324 3.0117626 1.5763131 1.4148873 -0.7432291

fc2.weight f4 [1, 30]
00000000: c717 25be 2ac8 84be 1d38 67bf d06e c9be
00000010: 93a4 163f 3fda 69bf d21a b5be 7485 c3bd
00000020: 4849 e93e 3735 bf3e 63ef e43f 73f0 89be
00000030: bd71 cfbf 3696 c8be 32a1 1ac0 f3cb 483e
00000040: 089c 66be def2 d53e ce5b 06bd 7a2f ecbe
00000050: 183a a2bc 5cb7 173f 070f c6be 2069 fd3f
00000060: e3d9 0d3f cdba 34be ba3e c2be cd18 eebd
00000070: 0253 35be 4a92 fe3e
-0.16122352 -0.25933963 -0.9032 -0.39342356 0.5884487 -0.9134864 -0.35372025 -0.095469385
0.45563722 0.37345287 1.7885555 -0.2694126 -1.6206585 -0.39177102 -2.4160886 0.1960905
-0.22520459 0.41786855 -0.032802396 -0.46129972 -0.019803092 0.5926416 -0.3868334 1.9797707
0.55410594 -0.17649384 -0.37938482 -0.11625824 -0.17707446 0.49720985
