tutorials/02-intermediate/recurrent_neural_network/model.ckpt (torch, 859719 bytes, 10 tensors)

lstm.weight_ih_l0 f4 [512, 28]
00000000: 1ab3 fd3d d9ac 0f3f 1e20 ab3e cfa0 40be
00000010: 61a4 3bbe cc48 833d 73d4 483e 6a06 b33e
00000020: 0554 303e e73f 433e 4f72 783e 107c 4c3e
00000030: d555 01bd abe1 f73d 1a57 aebd 145a a6bd
00000040: 963b 8f3d a128 5c3d 3998 0f3d ffab 6ebc
00000050: 8b12 2abe 2076 00bd 02f5 533e 8adc 4fbd
00000060: 79b9 84be ec65 cfbe 4c4d 2cbe 6bd3 a4be
00000070: 6b73 6a3d b19e ce3e 849a 1b3e ee66 2cbe
00000080: d730 85bb 370c 16be 015d 6fbe 49b6 dabe
00000090: ff3e c3be f777 d3be 46d2 81be 9ed3 61be
000000a0: cbb6 c3be dd12 85be d110 34be f4cb 8abe
000000b0: 3514 94be 7733 04be 6bdc 83bd f78e 46be
000000c0: 6768 cebe f887 85be 7b62 17be 2f8c 70bc
000000d0: eb2d 97bd bde4 9f3e 36a0 c43e b642 3f3d
000000e0: 6d63 9fbb 4101 173d c8d1 19be 4446 debd
000000f0: 0f55 30bf 993b 1cbf a9c2 10bf ec5d 27bf
00000100: 2ded 34bf 99a6 3abf 626f 5bbf 8f02 30bf
00000110: db3f 01bf b7a6 e5bd ed6f d23b 8142 c2be
00000120: b0ff afbe 40e7 bebe 2931 a0bc 9b5a d53d
00000130: b3e2 12be 8045 a4be 7b39 cfbe 55e1 8fbe
00000140: 3672 f2bc 5743 733c ebcc 323e 6d38 1ebe
00000150: 0231 5fbe afa2 0b3f cd18 2f3f 05ce 853d
00000160: fa95 293e bc28 cf3e bea3 fb3e 4a4f a03e
00000170: 65aa 11be 76e2 4dbe 015e 4c3d 73f9 8d3e
00000180: 8132 073f aab4 9f3e 0b59 3b3e eb98 883d
00000190: 52ab a13d d221 063f d934 0d3f c718 103f
000001a0: faae 293c 4189 d7bd 2c0f 5a3b c682 833e
000001b0: 12bb df3e 9817 223e d396 44be 98d2 1d3f
000001c0: 36df 2bbd 9a2e 27bf 127f ce3d 8cde 43bd
000001d0: edbd 22bd 7c0f 9f3d 9b14 63be b5cd 213c
000001e0: f7cd 3abe 4ed6 68be f5ec 94be 8896 42be
000001f0: 0a48 d93c b379 663e 7e2f b93e 2ef7 b93e
00000200: 1f7a 8a3e 1071 b13d b68c 1b3e e1bc a13e
00000210: 5ed5 063f 9d3e 193f 505c 273f 3deb 3b3f
00000220: 9215 4b3f 7200 d73e ed49 113e f2b1 9c3d
00000230: 222f a2bd 0fad f5be c681 043d 0363 5ebc
00000240: 28ab 2b3e 4f5a fcbe a930 4cbf 14e6 2dbf
00000250: a217 9abe b0d7 93be a603 eabe 302c 85be
00000260: e4b2 1d3d 3c4c 833e 5998 033e d9b3 9abe
00000270: 261d 20bf 9848 f8be 0337 b6bd 2258 c63e
00000280: 9e6d 153f 95a6 3b3f 9803 3f3f cda0 2d3f
00000290: 4007 393f 735e 2f3e 0fcc 213f ebc0 523e
000002a0: f2b8 8cbe e3ba 883e c3aa 283f 55f4 3e3e
000002b0: 7e02 033e b37e 843d c0da 223e 19d9 903c
000002c0: 705d 193e 377b ba3e 7c69 ac3e d763 a13e
000002d0: 596f 3d3e 421b 94bd abfa 5dbe 576f 4ebd
000002e0: 7b7d 4a3d c689 51be daea b8bd 88eb 4a3d
000002f0: 14e6 5fbd 2022 48bd dba4 033e 40bd 63be
00000300: fdde 92be 6c81 a4be 1511 debe 3073 323f
00000310: bcab 5f3d af38 423f 78cc 9e3e 2f14 8fbe
00000320: b952 efbe 684f 10bf d05c eebe 2e39 b9be
00000330: e92e 84be 10ca a3be 81f0 30be 3071 4fbe
00000340: 71b6 59be 12fd 54be 94e8 7fbe 18ae 4ebe
00000350: b2ad 08be 36be 18be fd34 48be 4a0a 80be
00000360: 9f93 b6be c57e bfbe 3eb2 aebe b436 cdbe
00000370: 3548 16bf 84fc f9be 1692 d73d 370b 873e
00000380: 3959 c93d e52d 91bb 0dec c93d 39f5 2abd
00000390: a2e0 b3be 6bab 1dbe bdcf 4bbe 18c6 3fbe
000003a0: 6247 f8bc 9485 2cbe 6036 e3bd 5e91 883e
000003b0: 8c16 563e 6a25 833d c7bc cebd 7d32 86be
000003c0: 752d 0ebc 2b51 753e 0cf2 353e 81a1 ee3c
000003d0: 6fc0 72bd da95 013e e12a a1bc 542f 8ebd
000003e0: fdec fdbd 3dc7 ad3d f13a 513e 528a b5be
000003f0: e8bc f2bb fa57 7b3e 3903 d53e 84d2 83bd
0.123876765 0.5612312 0.3342294 -0.18811344 -0.18324424 0.06410369 0.19612293 0.3496583
0.17219551 0.19067346 0.24262355 0.19969201 -0.031575996 0.121035896 -0.08512707 -0.0812265
0.06993787 0.053749684 0.03505728 -0.014567374 -0.16608636 -0.031362653 0.20698932 -0.05074743
-0.25922754 -0.40507448 -0.16826361 -0.3219255 0.057238977 0.40355447 0.15195662 -0.1683614
-0.00406466 -0.14653097 -0.23375322 -0.42717198 -0.38134 -0.41302463 -0.25355738 -0.22053382
-0.38225397 -0.25990954 -0.1758454 -0.2710873 -0.28921667 -0.12910257 -0.06438526 -0.19390474
-0.40314028 -0.26080298 -0.14783661 -0.01468186 -0.07381805 0.312292 0.3840348 0.04669448
-0.0048641474 0.03686643 -0.15021431 -0.10853246 -0.6887979 -0.6102844 -0.5654703 -0.6537769
-0.706744 -0.7291046 -0.8571683 -0.68753904 -0.5048806 -0.11213439 0.006422034 -0.37941363
-0.34374762 -0.37285805 -0.019554691 0.10417672 -0.14344291 -0.32084274 -0.40473542 -0.28101602
-0.029595476 0.014847598 0.17460983 -0.15451212 -0.21796039 0.5454511 0.6839722 0.06533436
0.16561118 0.40460765 0.49148363 0.31310493 -0.14225157 -0.20105919 0.049894337 0.27729377
0.5281144 0.31192523 0.18295686 0.06669792 0.07894005 0.52395356 0.55158764 0.5628781
0.010356659 -0.10524226 0.0033273203 0.2568571 0.4369741 0.15829313 -0.1919816 0.61649466
-0.041960917 -0.65305483 0.100828305 -0.04781966 -0.03973191 0.07766625 -0.22175829 0.009875705
-0.18242632 -0.22738001 -0.29087034 -0.19002736 0.026523609 0.22507362 0.36169046 0.36321396
0.27046296 0.08664143 0.15190396 0.31589416 0.5266932 0.59861165 0.6537523 0.7340582
0.7932979 0.41992527 0.14188357 0.07651128 -0.07919146 -0.47983596 0.032350324 -0.013573411
0.1676451 -0.4928765 -0.7976175 -0.67929196 -0.30096155 -0.28875494 -0.4570591 -0.26010275
0.03850068 0.256441 0.12851085 -0.30215338 -0.62544477 -0.48492885 -0.088972114 0.38739115
0.5837039 0.7330106 0.7461486 0.6782349 0.7227669 0.17125873 0.63201994 0.20581405
-0.27484852 0.26705083 0.6588556 0.18647893 0.1279392 0.064694785 0.15903759 0.017681645
0.1497705 0.3642213 0.33674228 0.31521484 0.18499507 -0.072317615 -0.21677653 -0.05039915
0.049436074 -0.20462713 -0.090291694 0.049541026 -0.05466278 -0.04886067 0.12855856 -0.22240162
-0.28685752 -0.3212999 -0.43372408 0.6970701 0.054607138 0.7586774 0.31015372 -0.27945086
-0.467428 -0.56371164 -0.46555185 -0.36176437 -0.2581704 -0.319901 -0.17279245 -0.20258021
-0.21261002 -0.20799664 -0.24991065 -0.20183599 -0.1334751 -0.1491631 -0.19551463 -0.2500785
-0.356595 -0.37401405 -0.34120363 -0.40080798 -0.5870393 -0.48825467 0.105259106 0.26375744
0.09831471 -0.00443052 0.09859476 -0.04173777 -0.3513232 -0.15397422 -0.19903465 -0.1872791
-0.030307475 -0.16847831 -0.110943556 0.26673406 0.20907038 0.064036205 -0.100946 -0.26210395
-0.00867783 0.23956744 0.17768115 0.029129745 -0.05926555 0.1265482 -0.019673767 -0.06942621
-0.123987176 0.08485267 0.2043264 -0.35457093 -0.0074077733 0.24545279 0.4160402 -0.06436637

lstm.weight_hh_l0 f4 [512, 128]
00000000: f62f 863e 5ed3 5e3e d3f4 153f dd72 2cbf
00000010: 9fbc 5cbd 1f80 153e 2796 cc3e 6c31 5b3e
00000020: d0a5 213e 11ac 2e3f 522e 343e 1794 35bf
00000030: ded6 f43e 160f 40be c567 b33e d740 3a3e
00000040: f954 95be 1671 b9be 0679 8e3d a33e b3bd
00000050: 9160 27be ea58 43be 89bd 0dbf aa92 0fbe
00000060: 72db 863c 3085 933d 5ea0 bebe 8464 58be
00000070: a255 8d3e 16f0 4cbe 31bc 933e b156 d73b
00000080: f74a 50be fc7e 413d 5dfa 303f 906a 54be
00000090: f92b 37be 27c2 97be e8f2 a5bc 57f5 d63e
000000a0: c4a9 8bbc 6234 213e 8f1c 8dbd 8c01 efbc
000000b0: 84c7 d9be 0b40 23bd f183 ca3e d69b f9bd
000000c0: 4a7d 1cbf c954 a23e 3f29 ed3e e05f ef3e
000000d0: 35d1 043f 3f3a 49be b3ea fbbd adcc bbbc
000000e0: 7ea5 9abd d2be f13e 4f09 81be b241 cd3a
000000f0: 8bf9 9cbe 1b6d 97bd b159 79be 26b9 0cbd
00000100: 77b3 bbbc 2867 c9be 5fe5 0fbf 3635 103e
00000110: 3aba bcbc 7bb2 57be 5dcb 2bbf 894d 103d
00000120: 8319 df3d 50e4 17bf b564 063e 9c27 2fbe
00000130: 518e e73d b208 a7be 5425 91bd 81d3 0d3e
00000140: 2c82 a1be fe51 863e a158 01be a60b 233f
00000150: 95fe 3a3e 6605 a23e a07b d7bd d6ba 143f
00000160: 9c34 9e3e c84a 4bbd 65fc 8bbe eba2 b03d
00000170: 6de3 6fbe b8cc a8bd a180 503e f708 23be
00000180: cd59 2f3d f450 b0be a95c 653f 1cc0 2bbe
00000190: c012 c0be 2d38 d63d 8276 853d 88cb 1ebd
000001a0: 7038 f3bd 6041 eab8 5504 a5bd b55f 8f3d
000001b0: e318 68bb 7785 9c3e e411 403d 7ca0 14bd
000001c0: a9af 723d 7918 f7be 59d7 0f3e 2886 6fbe
000001d0: ac09 6dbe 3ee1 403e 9676 bf3c c383 173e
000001e0: baec f2bd 6128 003e 3e1a 66bf 2c10 94bd
000001f0: b6b3 8abe aa4a 073e 586f 41be 0a69 afbd
00000200: 4d48 bf3d d45c f93d 506e d53d d632 b7bd
00000210: 2acc e0bd ddf4 aa3e c974 74be 2536 d93d
00000220: d210 0bbe a094 b63d cc5b a83d e44a 5b3d
00000230: 7db3 2a3e 9173 243d 154d bebb a864 48be
00000240: 1550 b03b f6cf a0be 1142 763c d89f 513d
00000250: 8e59 06be 913b c9bc d3cd 87be 9b4d 313d
00000260: f4de d83d 2b1e 833d 6bd5 4e3c 3efc 043c
00000270: 5d35 04be 6bff bdbe 7b59 513e 2fd8 05bb
00000280: 7a35 b93d a687 44bd fe49 86bd 6183 9c3e
00000290: c8f1 ecbd 4b7e 10be 535e 4a3e d644 243d
000002a0: e8fd d4bc f6c7 cfbd ece3 703e 445b 533c
000002b0: 467f 063c edae 633d 2ccc 8d3d b0a3 39bb
000002c0: 7bd4 73be aedc 273e ab3e 013e c45f ab3d
000002d0: 7830 ebbd 1f28 eebd eefe 563e 4d55 2bbd
000002e0: 1da9 4cbe 3587 d13d 1069 a73c 264a f13d
000002f0: 105b f8bd 1f51 623d 5055 35be 7aa5 c5bd
00000300: 2c81 5c3d dd2c ebbc 4beb 75bd 0532 dbbc
00000310: a5cd 12be eee8 98bd 41a4 87be 99b2 833e
00000320: 126b 443c d6aa 82be 62eb 12bb 3ad9 b43d
00000330: cf5a 6abd cc4b 95be faf5 07be 6c78 6a3d
00000340: fc6e bdbd 82b3 8a3e bac3 c73c 43c1 c53d
00000350: b1cd f83d d3af 313e fa65 adb9 9cbb 993e
00000360: ddf8 21be 15c5 723e 34a8 dc3d 585e 383d
00000370: 0262 e83c 9c37 803e d607 afbd 53af 043e
00000380: 9f03 293e ddb3 f5bd f62f 85bc 0846 26be
00000390: a21a 80be 6e87 d63d 9d00 93bd 621d ffbd
000003a0: 3c35 643e f734 a5bd d9b7 073e 76e6 43be
000003b0: 36f7 55bd c73f 813d 95b2 283d 41ae 20be
000003c0: 8b16 393e 017b 903d 92ba bcbd d365 46be
000003d0: da2a 6fbe 1b4e 0d3e 0392 0fbe f403 9e3c
000003e0: ab91 d33d 6273 81bc c815 a8bc 456b 28be
000003f0: f3c1 98be d890 9ebd 620d 4fbd b215 72bd
0.26208466 0.21760318 0.585767 -0.6736277 -0.05389082 0.14599656 0.39958307 0.21405572
0.15785909 0.682313 0.17595795 -0.7092909 0.4782018 -0.18755755 0.35040107 0.18188797
-0.29166391 -0.3621909 0.06956677 -0.087521814 -0.16345431 -0.19076887 -0.5536733 -0.14020792
0.016462062 0.07203138 -0.37231725 -0.21132094 0.27604395 -0.2001346 0.28854516 0.0065716137
-0.20341097 0.047240242 0.69132024 -0.20743775 -0.17887868 -0.29640314 -0.020257428 0.41984054
-0.017048724 0.15742639 -0.06890213 -0.029175542 -0.4253503 -0.039855998 0.39553788 -0.121879265
-0.61128676 0.3170531 0.4632053 0.46752834 0.51881725 -0.19651125 -0.12300625 -0.022924745
-0.075510964 0.47215897 -0.25202414 0.0015659838 -0.30659136 -0.07393857 -0.24350621 -0.03435626
-0.022912724 -0.39336514 -0.5620937 0.14082798 -0.023038018 -0.21064179 -0.6710718 0.035230193
0.10893538 -0.5933275 0.13124354 -0.17104954 0.113064416 -0.32623821 -0.07087198 0.13850214
-0.31544626 0.2623443 -0.12631465 0.6368965 0.18261178 0.31644744 -0.105216265 0.5809759
0.30899513 -0.049631864 -0.27341 0.08624824 -0.234266 -0.08242172 0.20361568 -0.15921389
0.04281025 -0.34436762 0.89594513 -0.16772503 -0.37514305 0.104599334 0.06516744 -0.03876832
-0.11875999 -0.000111701665 -0.08057467 0.070006765 -0.0035415224 0.30570576 0.04689206 -0.036285862
0.059249554 -0.4826086 0.14046992 -0.2339102 -0.23148221 0.18835923 0.023371976 0.14796357
-0.11861558 0.12515403 -0.8988379 -0.07229647 -0.27090234 0.13212076 -0.1889013 -0.085649565
0.09339962 0.12175909 0.10421431 -0.08945243 -0.10976441 0.3338994 -0.23872675 0.106060304
-0.13580635 0.08915067 0.08220634 0.05353822 0.16670032 0.040149275 -0.0058075287 -0.19569647
0.0053806403 -0.31408662 0.0150304 0.05117783 -0.131201 -0.024564536 -0.2652422 0.0432869
0.105894 0.064022385 0.012624125 0.00811678 -0.12910981 -0.3710893 0.2044429 -0.0020423045
0.09043403 -0.047980927 -0.06557082 0.30568984 -0.115695536 -0.14110677 0.19762544 0.04010471
-0.025999978 -0.101455614 0.23524445 0.012900177 0.008209055 0.055586744 0.06923708 -0.0028326325
-0.23811524 0.16392776 0.12621562 0.08367875 -0.11483854 -0.11628746 0.20995685 -0.041829396
-0.19986387 0.10230867 0.02043584 0.11781721 -0.12126744 0.055253144 -0.17708325 -0.09650703
0.053834125 -0.028707916 -0.060038846 -0.02675725 -0.1433626 -0.07466303 -0.26492503 0.25722197
0.011988418 -0.25520962 -0.002241813 0.08830495 -0.057215508 -0.2915939 -0.13277426 0.05724375
-0.09249684 0.2709008 0.024385322 0.09656002 0.121486075 0.17352228 -0.0003307311 0.30025947
-0.1581759 0.23707993 0.1077427 0.04501185 0.028367046 0.25042427 -0.085464165 0.12957506
0.16505288 -0.11997197 -0.016258221 -0.16237652 -0.2502032 0.1047505 -0.07177851 -0.12456776
0.22285932 -0.08066743 0.13253726 -0.19130883 -0.05223771 0.06310993 0.041185934 -0.15691473
0.18075006 0.07054711 -0.09215273 -0.1937478 -0.2335619 0.13799326 -0.14020543 0.019288994
0.10330518 -0.01580209 -0.020518199 -0.1644717 -0.29835472 -0.077424705 -0.050549872 -0.05910272

lstm.bias_ih_l0 f4 [512]
00000000: ef4e 13be 23d3 4bbe 3f7d a6be 2614 b6be
00000010: 3c71 63be c1f7 a5be ac6b 16bf 58e0 d5bd
00000020: a34a b5bd ba0a bdbe bb91 d5be 818d eebd
00000030: a0b8 adbe 4fb1 c7be 7e9e bcbe e6a8 60be
00000040: d253 1fbe 09dc cbbe d4d5 acbe 9c91 84be
00000050: 0c0d 5cbe f113 3cbe b6e5 5bbe 305d 96bd
00000060: d089 5dbe 5c3c 83be 893c 5fbe bd41 c6be
00000070: 8e45 86be bf57 09be 0445 89be 530b aebe
00000080: ecbe 82be a3f4 003e 54b5 05bf 5123 a9be
00000090: 4a40 90be 7ac3 69bb 0cd1 bcbd 0f9a 37be
000000a0: 3059 dcbe 49ce edbd 4fac 92be a98a 37be
000000b0: 0340 93be 8f5e 88be 02eb 40be 05ec d8be
000000c0: d937 4abe 030d 59be 100c 74be 4577 b7bd
000000d0: ebcc 5bbe d944 a2be c6c0 06bf 6213 74be
000000e0: afd6 91be 8ce6 5abe 124c 16be a38a e6bd
000000f0: 3672 85be a0b8 9cbe 7e47 b1be 6002 38be
00000100: 2ccf 07bb a27c dcbe daa2 a4bd ffaa 14bf
00000110: d1f0 86be 84f3 07be 1cd3 f2be 8461 22be
00000120: 4890 56be cbed febe d8e2 89be bc7e f1bd
00000130: 2920 c8be e529 b8be 999c 2bbe b99b debe
00000140: 65e8 8ebe aa3e 84be 94e6 81be ef58 cdbe
00000150: 0dc7 e0bd 41d4 a9be 1e18 fabc 4e46 cbbd
00000160: 24f5 d83c bcce f2bd b21c e53a 8b23 44be
00000170: 3cbd 06bc 3eba 43bd 34aa e8be 7907 9dbe
00000180: d478 9dbe 7207 94be 6379 86be a58f d0be
00000190: f0f6 1dbe 7dd1 edbe 36b3 a4be 00e5 30be
000001a0: af7c c03e c7db 9dbe 4e0d 04be 4107 c2be
000001b0: b5c1 3bbe 7a99 41be be3a 86be b98c 31be
000001c0: 4da0 c1be fd1a a8be 5473 3fbe 0930 31be
000001d0: 6474 11be b6f4 e7be a594 58be 3390 17be
000001e0: ad57 d0be 63ba 383d d8f9 31be f3de 96be
000001f0: 35e4 41be fb10 0dbf b408 ab3d 209c 76be
00000200: 0c28 ec3e fdd2 96be b501 35bd 3914 3abe
00000210: 8f6e 873c 49e5 c73c 8084 a0be 186f 17be
00000220: 0162 e03d 075b 64be 0997 d9bd fbae afbe
00000230: 03d1 68be d054 bcbc c464 be3c 5c54 a73e
00000240: ca1d febc b76a a6be 8b37 39be 8c63 363c
00000250: e80a 21be 9ae7 cabe aec7 98bd 96c8 9dbd
00000260: 0bfa 83be 30cb 71bc d63f 23be 2e72 8cbe
00000270: 305e 333e bf09 423c 3eb5 07be 9f94 bebc
00000280: 727e 42be 8e13 05be ae96 23bf 3e72 48be
00000290: b965 c2be b224 82bc 461b 9d3d 6ca4 61be
000002a0: 5316 ab3d 4c6a 76be 7817 c7bc 3338 0cbe
000002b0: 904a 883c d0b7 353e 7ecf cabd d069 8e3c
000002c0: 3cc6 76be 891a bbbd c5ed c5bc 7fa3 c2be
000002d0: 1860 92be 300f 17be aead 963e bfe8 28be
000002e0: d302 6bbd 9a4e 90be ba33 853e 7fd9 57be
000002f0: 0155 57be 2425 d1bd a45b b8bd 9fed c0bd
00000300: 96e4 50be cc0f 84be e740 e5bd e5b6 62be
00000310: 46c5 263e cee4 723e 7e0e 05bf b1a5 68bd
00000320: b4af b03c 6269 663e 54b2 73be d55b 043e
00000330: 126e c9bd d890 30be 4686 303d 904d f8be
00000340: d242 d8bd c7df c1be 2414 aebd 3c09 193e
00000350: d188 ffbc 7cc7 88bb 8477 183e 5861 28be
00000360: 4b79 1c3d 752a 143e 216b 32bc 251f 45be
00000370: bed6 6bbe 0404 97bd 1377 8abe 9c52 75bd
00000380: 5a09 b5bd 4b13 9e3d 7404 8ebe d325 efbd
00000390: 10c3 1e3d 879a d93c b6bf 043e 38d5 253e
000003a0: 35fb 90be c3e0 0dbe 5966 a4bd 38a7 173e
000003b0: a9eb f8bd 30fb 0e3e 83c7 5abd caf3 eb3d
000003c0: 572f d3bd c8e2 fa3c d289 d1be 4eed ee3d
000003d0: fc06 ab3d f48a f1bd eeef a8be c55d c3be
000003e0: e9c7 9dbe 678b 2e3e f965 adbe b0a4 483d
000003f0: 7a81 a3be 5671 ffbc e79d 823e e648 00be
-0.1438558 -0.19904761 -0.3251743 -0.35562247 -0.22211164 -0.32415584 -0.58758044 -0.10443181
-0.088521264 -0.36922246 -0.41712746 -0.116480835 -0.3392992 -0.39002463 -0.3683967 -0.2193943
-0.15559319 -0.3981631 -0.33756888 -0.2589234 -0.21489352 -0.18366982 -0.21474347 -0.07341993
-0.21634603 -0.25631988 -0.21800436 -0.3872203 -0.2622494 -0.13412379 -0.26810467 -0.33993015
-0.25536287 0.12593322 -0.5222981 -0.33034757 -0.2817405 -0.0035669492 -0.0921956 -0.17929862
-0.43036795 -0.116116114 -0.28647086 -0.17923988 -0.28759775 -0.26634642 -0.18839648 -0.4236757
-0.19747867 -0.2119637 -0.23832726 -0.08958296 -0.21464889 -0.31693152 -0.526379 -0.23835519
-0.28484103 -0.21377009 -0.14677456 -0.112569116 -0.260637 -0.30609608 -0.34624857 -0.17969656
-0.002072285 -0.43063837 -0.08038874 -0.5807342 -0.26355603 -0.13276488 -0.4742669 -0.15857512
-0.20953476 -0.49790797 -0.2693088 -0.11791751 -0.39087036 -0.35969463 -0.16758956 -0.43478182
-0.27911678 -0.2582906 -0.2537123 -0.40106913 -0.10975466 -0.3316975 -0.030529078 -0.09925519
0.02648408 -0.11855838 0.0017479865 -0.19154184 -0.008223828 -0.047785036 -0.45442355 -0.30669764
-0.30756247 -0.2891193 -0.26264486 -0.40734592 -0.1542623 -0.4644889 -0.32167977 -0.17274857
0.37595126 -0.3083174 -0.128957 -0.3789616 -0.18335612 -0.18906203 -0.26216692 -0.17338838
-0.37817612 -0.3283309 -0.18696338 -0.1730348 -0.14204556 -0.45303887 -0.21150453 -0.14801101
-0.4069189 0.045099627 -0.17380464 -0.29466972 -0.1893471 -0.55104035 0.08351269 -0.24082994
0.46124303 -0.29457846 -0.04419108 -0.18171777 0.01653221 0.024401324 -0.3135109 -0.14788473
0.10956193 -0.22300349 -0.10624511 -0.34313187 -0.22735982 -0.02298966 0.023241408 0.3268155
-0.031020064 -0.32503292 -0.18087594 0.011132132 -0.15726817 -0.39629823 -0.07459961 -0.07704274
-0.25776705 -0.014757916 -0.1594232 -0.27430862 0.17516398 0.011843144 -0.13252732 -0.023264227
-0.18993548 -0.12995741 -0.63901794 -0.1957483 -0.37968233 -0.015886638 0.076712176 -0.22035378
0.083538674 -0.24063987 -0.024303183 -0.13693313 0.016637117 0.177459 -0.09902857 0.01738444
-0.24099058 -0.091359206 -0.024161229 -0.38015363 -0.2858894 -0.14751887 0.29429382 -0.16495036
-0.05737574 -0.28184968 0.26016027 -0.21079062 -0.2102852 -0.10212162 -0.09001854 -0.094203226
-0.20399699 -0.25793302 -0.1119402 -0.22140081 0.16286191 0.23720095 -0.5197524 -0.05679864
0.021568157 0.22501138 -0.23798496 0.12925656 -0.09835447 -0.17242754 0.043096803 -0.48496675
-0.1055962 -0.3786604 -0.08499935 0.14944929 -0.031193169 -0.004174171 0.14889342 -0.16443384
0.03820161 0.14469321 -0.010889799 -0.19250162 -0.23031136 -0.07373813 -0.2704397 -0.059893236
-0.08839674 0.077185236 -0.27737772 -0.11677136 0.038760245 0.026562942 0.12963757 0.16194618
-0.28316656 -0.13855271 -0.08027334 0.14809883 -0.121543236 0.13963008 -0.053412925 0.115211084
-0.10311764 0.030625716 -0.4092546 0.11666356 0.083509415 -0.11794081 -0.32995552 -0.38157478
-0.30816582 0.17045365 -0.3386686 0.048985183 -0.3193472 -0.031181972 0.25511095 -0.12527809

lstm.bias_hh_l0 f4 [512]
00000000: 6cc8 8dbe 0d87 29be 51e3 b7be b287 c6be
00000010: 26c6 4bbe e98e 9abe 4582 10bf 565f 18be
00000020: 2331 a3bd cfed f1be bab5 f1be 9225 70be
00000030: 387e b6be 67a7 74be 1abe c7be 11f2 11be
00000040: d3b8 39be ec84 b0be a58b 8bbe 2186 a6be
00000050: 9352 96be 280a 25be ff0b bcbe 99b0 cbbd
00000060: 9147 98bd f63a 86be 322a 34be 7f70 c3be
00000070: a779 8ebe 87c4 18be 3200 adbe 3e14 70be
00000080: bafb aebe 583c 06bd 99e2 06bf 7477 c4be
00000090: f6f1 66be f763 ce3d ecee 29be 21ea 95be
000000a0: 750c d2be 529b 0ebe 69f2 9dbe d79d 79be
000000b0: d8ee d5be 0920 7abe 5d1c 0cbe 7789 afbe
000000c0: 06c8 3dbe af71 8fbe 7eef 8cbe 3543 29be
000000d0: e269 2bbe 4d79 62be 1709 00bf acc8 91be
000000e0: c488 f7bd cba5 84be 44e7 7dbe c4e3 a9bd
000000f0: 7b08 c0be 105f 51be eff5 b5be d8a1 3cbe
00000100: 6c95 00bd a7ea 15bf c3b4 15be 04a8 03bf
00000110: e864 79be ab7b 5abe 188d f5be c639 5dbe
00000120: 8e6d 70be 138d f3be f49f ccbe c66f 52be
00000130: 0a14 c1be 8082 bbbe ea66 91bd 3a09 d2be
00000140: b473 acbe 6aab b7be 02d4 96be 2508 03bf
00000150: 97c2 13be ea3d d3be 0b24 53bc 607a 52be
00000160: 291a 00bd d463 4ebd ee34 ddba 1cac 46be
00000170: 463c 9a3d e960 cfbc dcd5 e7be 98d8 8fbe
00000180: cd3d debe 565b 81be 8dcb 8cbe 1f9a 92be
00000190: 0c08 b0bd 0d1a 04bf 15a6 b2be cd4e 18be
000001a0: 276b b73e ede8 90be b6d6 33bd a5d0 6bbe
000001b0: a14d 51be f9f9 61be 0366 88be 0d5e 4ebe
000001c0: 82b5 e1be 3ca1 afbe 3100 85be c0f5 d4bd
000001d0: e174 41be 905a 19bf f837 59be 8cb2 16be
000001e0: 3482 d1be 6bfe d1bd 4ac2 12bd e70d 60be
000001f0: ebc5 27be 2561 d9be 78d2 caba 9e89 abbe
00000200: f0af 063f b598 89be 1bfd 34bd a162 3fbe
00000210: e8b2 abbd 4993 0b3d 4c10 d4be 0e82 01be
00000220: 0522 8b3e 6a03 44be 2b5d 16bd b3f9 84be
00000230: 4e8d 65be 6d37 d13d 170f 96bd de61 753e
00000240: 63c1 07be bd40 6dbe 54c4 90bd 4a52 0abd
00000250: 28ff 9bbd e818 94be f2dd 04be 6615 0fbd
00000260: f57f b1be 8479 d7bc 6b76 55be 4305 89be
00000270: f085 3b3e bc94 b3bc c388 20be c4f7 d93d
00000280: e08c 9ebe d4b8 45be 50f2 11bf eec4 9dbe
00000290: 9917 86be 58f8 28be cc57 9dbb 5571 49be
000002a0: 5a18 48bc 9f8e 96be 83b3 c63d ac34 93bd
000002b0: e76f 49bd f251 f23d ab1b eabd 9eba 6f3d
000002c0: 3822 9cbd 6e1d c4bc 4376 0dbe a374 efbe
000002d0: 505a 9bbe ec6d ebbd 96b9 283e c14a e7bd
000002e0: 827e 6fbd b2e0 36be 9460 d23d 9541 53be
000002f0: c7c3 66be e53d c4bd c16c 17be fdd6 86bb
00000300: e18c 8dbe 31a4 cabe f9a6 a9bd 3e46 8ebe
00000310: a4c5 513e a5f8 9c3e eaf8 13bf ee16 71bd
00000320: 1f24 2a3c 8be3 7e3e 6e0e 78be 6533 4f3d
00000330: 480e 40be 4117 fabd 7512 6cbd 157b c9be
00000340: 791d 5dbd fe12 e6be ebbd 20be 08b0 4b3e
00000350: ae22 1cbd 1b77 b23d 07ca 313e 1716 60be
00000360: faea b13c 9a86 3a3e 17fb 41bd c726 8cbd
00000370: 3c16 46be 7bc2 49bc 3ad3 4bbe cf2c febd
00000380: 1705 d5bc abc9 153e 81b4 dabe 087b 3abd
00000390: 6f7b 3a3e e0d0 61bd 30c5 053e 4520 813e
000003a0: 25ec bbbe 3065 e6bd 4c1c 073c 16ac 263e
000003b0: 7877 d4bc 28cb dd3d 6fee a7bc 4251 9e3d
000003c0: aed0 15bc 6bb1 dd3d e3b3 b6be ab7c 0e3e
000003d0: 63f7 923d 96b6 04be 425d a4be a61a d6be
000003e0: 9305 7bbe d273 703e f109 b2be c6ef 023e
000003f0: 652c 45be b69d 623d 3854 063e 7b4d 35bd
-0.27691972 -0.16555424 -0.35915616 -0.38775402 -0.19899806 -0.30187157 -0.56448776 -0.14880118
-0.079683565 -0.47251746 -0.4720896 -0.23451832 -0.35643172 -0.23891984 -0.39012223 -0.14252497
-0.18136911 -0.3447641 -0.27254978 -0.32524207 -0.29359874 -0.16117156 -0.36727902 -0.09945793
-0.07435525 -0.2621686 -0.17594221 -0.38171765 -0.27827188 -0.14918719 -0.33789212 -0.23445222
-0.34176427 -0.032772392 -0.5268951 -0.38372386 -0.22553238 0.100776605 -0.16595048 -0.2928019
-0.4102513 -0.13926437 -0.30849007 -0.24376617 -0.41783786 -0.24426283 -0.13682695 -0.34284565
-0.18533334 -0.2801642 -0.27526468 -0.16529544 -0.1673961 -0.22116585 -0.5001387 -0.28473413
-0.12086633 -0.2590774 -0.24795252 -0.08295396 -0.3750647 -0.2044642 -0.35539195 -0.18421113
-0.0313925 -0.58561176 -0.14619736 -0.51428246 -0.24354899 -0.21336238 -0.47959208 -0.2160407
-0.23479292 -0.4756857 -0.39965785 -0.2055045 -0.377106 -0.36623 -0.070997074 -0.41022664
-0.33682024 -0.35872966 -0.29458624 -0.511843 -0.14429699 -0.41258174 -0.012887011 -0.20554495
-0.03127495 -0.050388172 -0.0016876736 -0.19401592 0.075310275 -0.025314765 -0.4528035 -0.28094935
-0.43406525 -0.25264996 -0.27499047 -0.2863321 -0.08595285 -0.5160225 -0.34892336 -0.1487381
0.35823938 -0.28302708 -0.043905936 -0.2302881 -0.2043977 -0.22068013 -0.2664033 -0.20153065
-0.44083792 -0.343027 -0.2597671 -0.103984356 -0.18892242 -0.5990381 -0.21212757 -0.14716548
-0.4091965 -0.102536045 -0.03582982 -0.21880303 -0.16384093 -0.42456928 -0.0015474102 -0.3350343
0.5261221 -0.2687432 -0.044186693 -0.18689968 -0.08383733 0.03407601 -0.41418684 -0.12647268
0.27174392 -0.19141927 -0.036709946 -0.25971755 -0.22417185 0.1021565 -0.07327097 0.23963115
-0.13257365 -0.23169227 -0.070686966 -0.033769883 -0.076170266 -0.28925252 -0.1297529 -0.034932517
-0.34667936 -0.02630306 -0.20845954 -0.26761827 0.18312812 -0.021921508 -0.1567717 0.10642961
-0.30966854 -0.19308788 -0.57010365 -0.30814308 -0.2618988 -0.16500986 -0.004801726 -0.19672139
-0.012212837 -0.29405686 0.09702208 -0.07187781 -0.049178984 0.11832036 -0.114310585 0.05852758
-0.07623714 -0.023939814 -0.13814645 -0.46768674 -0.3034234 -0.11495575 0.16477045 -0.11293555
-0.058470257 -0.17859152 0.10272327 -0.20630486 -0.2253562 -0.09582118 -0.1478758 -0.004114984
-0.27646545 -0.39578393 -0.08283801 -0.27787966 0.2048555 0.3065845 -0.5780169 -0.058859758
0.0103845885 0.24891488 -0.24224254 0.050586123 -0.18755448 -0.122114666 -0.05763479 -0.39351717
-0.053983185 -0.44936365 -0.15697448 0.1989137 -0.03811901 0.08714124 0.17362224 -0.21883427
0.02171849 0.18215409 -0.0473586 -0.06843334 -0.19344419 -0.012314434 -0.19904795 -0.1241089
-0.026003404 0.14627711 -0.4271584 -0.045527488 0.18211149 -0.05513084 0.13063502 0.25219932
-0.367036 -0.11249769 0.008246493 0.16276583 -0.025935873 0.108297646 -0.020499436 0.077303424
-0.009143991 0.108248554 -0.35684118 0.13914745 0.071760915 -0.12960276 -0.321024 -0.41817206
-0.24513845 0.23481682 -0.3477321 0.12786779 -0.19255216 0.055326186 0.13118064 -0.044263344

lstm.weight_ih_l1 f4 [512, 128]
00000000: 7293 5c3f 5082 fd3e e625 98be 1bda 66bf
00000010: 0858 bebd dc46 bfbe c16c 2f3e a342 9b3e
00000020: fb20 8ebe 3506 bdbc 43fd c43e 4735 bebc
00000030: 6cf8 44bf 5346 12bf bd6c 24bd c48d 5dbf
00000040: 8fca 3e3f 43f2 3c3e a8b7 c0be 29b5 d93d
00000050: d23a 0a3d d4bf 06bd 6d75 cebe f420 49bd
00000060: f025 313f c4f5 c43d ecb9 a7be fc9e 7a3e
00000070: 348d c33d 7941 debd 7e9a a13e 6e58 b33e
00000080: a31e fc3d c470 8ebf 2277 9d3e 9913 df3e
00000090: e4d3 edbd 541c 783e 6f2f be3e 3b85 e73e
000000a0: ba8a 503e 9e3d 2cbe cc05 2abe dc0f a53e
000000b0: 6f5a a9be ec19 3dbe 676c 63bd e6e8 2b3f
000000c0: c879 85be e029 303f 348b 5d3e cdad f63e
000000d0: 45d4 72bd 86c4 aebc 7098 423e 6ac0 82bf
000000e0: ca6c cdbc a19e adbd adb4 0c3f 24ea 623f
000000f0: 89d9 80bc 1a3b 013e b852 04bf f8ca a2be
00000100: b144 32bf a6bc 26be 3c17 17bf c51a 483d
00000110: 12e8 34bf d6e7 01bf 7b74 093e fe04 40bf
00000120: 5d18 d8be b5ce e0be 1d53 a6be b5b8 d63e
00000130: 4728 a2bd f6e9 70bc 3029 f53e e67f f5be
00000140: fa24 ce3e 0701 243e 8d9e 453c 89b8 2cbe
00000150: 4517 143e c3a1 77bd 637b ae3e 92d1 5a3e
00000160: 68ed 56bf d0cb 223f 3b74 753f 6d8e 8cbd
00000170: 6fff d03d 7930 7ebe c062 25bf 2a44 933e
00000180: 356e 743c db7d cbbd 143d 2d3e 2d9f 53bd
00000190: 4fcb 85be e9d1 9dbe b00b d8bd 69d3 77bf
000001a0: 22fb a43e 1ce1 a1bd 0f13 793e 1975 4ebe
000001b0: e600 e9be c9e8 b33e 6801 943e 421a bcbd
000001c0: 0684 013f 1392 afbe 36b0 143e 8243 ab3e
000001d0: 6042 283f b782 0e3f ded6 993d 52d8 f9be
000001e0: 6c51 06be eec4 e23e 2530 373e abf5 a63e
000001f0: a3f3 83be db73 373e 45c3 c03e 42fd 7cbe
00000200: 0ad2 963e e3ff 5b3e 4e91 543e 59bf 57bf
00000210: cbe2 7dbb 57f3 603e 88d6 a43d 4334 003f
00000220: fc64 cabe 2bbf 3b3e d3ba a63d 2fc5 c5bd
00000230: 2d16 6e3e 841d 413e 7619 d03e 5683 0bbd
00000240: 69e6 fcbe 681c 26bf 509e 84bd 3fa7 6ebd
00000250: c89f 00be d47a 913d d1b1 8cbe ea9e 13be
00000260: 35f9 e93d 5f56 17be 2982 55be 7521 cfba
00000270: 2599 1dbe ea74 ccbe 0c56 863e 03bb 6e3e
00000280: 5433 403e 2029 0ebe 24b1 fb3e 3dab 6d3e
00000290: d391 c7be 2cf2 c63d 52f1 743e ebcd 8e3e
000002a0: 3ad1 a93c bcea 2c3f 423a ae3e 7091 8d3e
000002b0: b802 c33d a339 5f3e 5f8b 133e 2228 6b3d
000002c0: 3e26 89be 46ca debd 03e3 863e 69cc b83d
000002d0: 2706 203e 459f 28be 30d6 943e 81b6 973e
000002e0: 72f4 c5be 7a5f 833e 4f06 75be 0927 193e
000002f0: 5d15 403f 17ea e43d 44a7 9fbd b1a2 1bbe
00000300: b776 b4be f586 88bd 7f33 01bd 4b75 053f
00000310: dfd2 65be f630 98be f0a7 f7be 546d 4f3e
00000320: 3ce3 3bbe a562 48bf 0d08 0e3f 743c 7c3e
00000330: d37f 02be 39ac a6be a87d 24be 5c3d 1ebd
00000340: b15c f7be b08e 9139 d4ad c53d 4155 a53e
00000350: 2fae 273e 267f fe3d d2fe 55bd b040 c33e
00000360: 8f5c b33d e6a9 cf3e e279 8ebd b545 2d3e
00000370: d246 16be f8fa 053f 227d a33d b304 35be
00000380: 6cc9 533e 25c9 d0be f28b 1b3f 2d15 b93e
00000390: 13ac 60bd 005c ac3e 9613 ddbd d226 02be
000003a0: 9d2f 133e b44e 893c be28 9ebd a2d1 7cbe
000003b0: d1d3 f7bd 808a 163f 7743 143d 80c3 dfbe
000003c0: d9e7 823e 06cd 04bf 9844 0bbf 6118 35be
000003d0: f23c ce3e 392b 57be 2443 063d cad9 873d
000003e0: c4ba af3d 972b d93d a8a1 9bbe 3e9d 083e
000003f0: fbab 3b3e b56c 0cbe be54 7d3e f5a9 823e
0.86162484 0.49513483 -0.29716414 -0.9017655 -0.092941344 -0.3735875 0.1713133 0.30324277
-0.27759537 -0.023074249 0.38474473 -0.023218764 -0.7694156 -0.57138556 -0.040142763 -0.8654444
0.7452783 0.1845179 -0.3764012 0.10630257 0.0337475 -0.032897785 -0.40323964 -0.049103692
0.69198513 0.096171886 -0.32759035 0.2447471 0.09548417 -0.10852332 0.3156318 0.35028404
0.12310531 -1.1128163 0.30754954 0.4356964 -0.116126806 0.24229556 0.37145564 0.45218834
0.2036542 -0.1682038 -0.16603774 0.32238662 -0.33076808 -0.1846692 -0.055523302 0.6715225
-0.26069474 0.68813896 0.21635133 0.48179474 -0.059284467 -0.021333944 0.19003463 -1.021497
-0.025076289 -0.08477522 0.5496319 0.8863852 -0.015728729 0.12620202 -0.5168872 -0.31795478
-0.69636065 -0.16282901 -0.5901983 0.048853654 -0.7066661 -0.5074438 0.1342334 -0.7500762
-0.42206088 -0.43907705 -0.32485285 0.41937795 -0.079178385 -0.014704218 0.47882986 -0.4794914
0.40262586 0.16016017 0.012061727 -0.1686727 0.14462002 -0.060457002 0.34078512 0.21369007
-0.83956003 0.63592243 0.9588048 -0.06863103 0.1020497 -0.24823178 -0.64603806 0.28762943
0.0149188535 -0.099361144 0.1691783 -0.051665474 -0.26131675 -0.3082421 -0.10549104 -0.9680696
0.3222285 -0.07904264 0.24323677 -0.20161857 -0.45508498 0.35138538 0.28907323 -0.09184696
0.50592077 -0.34291133 0.14520344 0.33449942 0.6572628 0.55668205 0.07511686 -0.48797852
-0.13116997 0.4429087 0.1788946 0.32609305 -0.25771818 0.17915289 0.3764898 -0.24705985
0.29457122 0.21484332 0.20758554 -0.8427635 -0.0038739915 0.21967827 0.08048731 0.50079745
-0.3953017 0.18334644 0.08141103 -0.096567504 0.23250647 0.18858916 0.40644425 -0.0340608
-0.4939454 -0.64887094 -0.06475508 -0.058264967 -0.12560952 0.07103506 -0.27479413 -0.1441609
0.114244856 -0.14779042 -0.20850433 -0.0015802818 -0.15390451 -0.39932948 0.26237524 0.23313527
0.1876958 -0.13882875 0.49158585 0.23209853 -0.38978443 0.09714159 0.23920181 0.27891478
0.02072965 0.67545676 0.34028822 0.27650023 0.09522003 0.2179933 0.14408635 0.05741132
-0.2678699 -0.10878424 0.2634507 0.09023363 0.15627347 -0.16467007 0.29069662 0.29631427
-0.3866306 0.2565878 -0.23928188 0.14956297 0.750326 0.111774616 -0.07795575 -0.1519878
-0.35246822 -0.06666366 -0.03154325 0.521321 -0.22443722 -0.29724854 -0.48370314 0.20256549
-0.18348402 -0.7827552 0.55481035 0.24632436 -0.12744074 -0.3255327 -0.16063559 -0.038632736
-0.48312905 0.00027762866 0.09652296 0.32291606 0.1637504 0.124265954 -0.05224497 0.3813529
0.087578885 0.4055931 -0.06956841 0.16921122 -0.14675453 0.5233607 0.079828516 -0.17677574
0.20682305 -0.4077846 0.60760415 0.36148968 -0.054851603 0.3366394 -0.10794751 -0.12710121
0.14373632 0.016761161 -0.07722615 -0.24689344 -0.12100948 0.58805084 0.036197152 -0.43703842
0.2556751 -0.5187534 -0.5440154 -0.17685081 0.40280873 -0.21012582 0.032778874 0.06633337
0.085805446 0.10604017 -0.3039677 0.13341233 0.18327324 -0.13713343 0.24739358 0.25520292

lstm.weight_hh_l1 f4 [512, 128]
00000000: 4e4c adbe 8820 243f 19e8 a33e b0da 5c3e
00000010: b42f 6d3e 8c15 bf3e ba8c d7be a6f5 2a3d
00000020: efee e9be 5ef5 2dbc 0ebe b23e a015 adbc
00000030: e6aa c83d 10e8 823e 4b96 6bbe 9ddf d7be
00000040: e08c 38bf 6a1e cb3c 7fe5 a83d e443 a2be
00000050: 15e5 283d 9d95 cabe 270d 083e 53b1 563d
00000060: 4c2d 453d 77ab 01bf ba66 57bf 2960 933e
00000070: 2bf3 c9be f74a 31be f7b3 a03d 255f ac3e
00000080: 922b 713d 6dc9 2bbd 0610 a7bd 62fc c43e
00000090: d33d 8e3d a63e 383c adff 1c3f 51ea e03d
000000a0: 5f22 e13e c994 bf3e e9b4 26bf 2e61 e9be
000000b0: e563 d23e 1e87 b0bd 9969 52be 8ac4 313f
000000c0: 9ae3 04bd f48f 1c3f 86cf 7fbe 63e8 0f3e
000000d0: ca35 0bbf c4ca 243e 22f4 333c 344b 6a3f
000000e0: b2a2 10bf 2f14 b03e c356 023f dc05 24be
000000f0: df73 efbe 5f61 b43e 4681 183e c6c6 233e
00000100: d368 59be 75f9 d0be 3dd3 47be 9160 133f
00000110: db18 b73d 15ec 9bbe 9b69 523e 1f8a 4c3d
00000120: 1282 6cbe df4e 2bbe aac5 35be 97b6 41be
00000130: cb9a 1abf 538d 3dbf f03a 21be 7090 dcbe
00000140: 2ce4 11be 86f0 d63a 087e 2a3c ce21 c4be
00000150: 6a94 bbbe 9a0c 1c3f e64a bb3d f43a 80be
00000160: 1cdd 3d3e bc72 bf3e 0db0 e13e 9145 10bf
00000170: 54fe a03e d80e 973e e783 db3d 47a6 88be
00000180: c913 4b3e b29a ebbe 8271 adbe 53ba 493d
00000190: 3bf3 ea3e 2ec8 d83e 5a17 3bbe 45b9 05bf
000001a0: 083b 0abf 7aa4 21bd f419 183f 574b f83d
000001b0: 0b27 05bf 2986 c03d d1a9 20be 4c29 0abf
000001c0: 7d07 143f bf36 84bd 167f 71be de24 453f
000001d0: 884a b43e 8751 843e a40b 31be f3b6 8c3e
000001e0: b60e e93d 8d25 d9be ce40 22be 48bb 85bc
000001f0: d594 2dbd 8337 28bf 5b6e e8bc 2813 3a3f
00000200: ad3b 4e3d 92c1 313e 4f6d a0be 73bd 42bb
00000210: 8b25 1fbe 2e24 2bbe 7075 e53d c8cd fe3c
00000220: 3470 46bd ccfd bbbd 37eb 3f3e 0986 8b3e
00000230: 3f32 dabe e63e 74be 5b2b 073e ff53 e73d
00000240: b2e0 9e3d baa7 963d b135 96be 3c61 41be
00000250: bbe8 ae3c f5c6 833c e869 6b3e 9126 1fbe
00000260: 4b7c b8bd a1e4 92bb d33e b0be 63fe f53d
00000270: c0ca 6c3e aeba 7f3e 926a 9ebd ad1e 95bd
00000280: aa67 babc eed2 92bd 9fd7 d2bd 8243 883d
00000290: 4dee 343d 41b7 0fbe 69cf 483d 38f5 5f3d
000002a0: 2763 2dbe 53e6 863e b198 47bd 13e8 4b3e
000002b0: 38b7 8abd cd06 ca3e 9892 1d3d f88f d93d
000002c0: fa16 2b3e 3024 fbba fd57 e6be 6dce 0d3e
000002d0: 1585 2b3e 48ff 6b3d 5fdd acbe 50e7 25be
000002e0: 7405 4c3e 4c7e 173b 60bd f73d 6315 cb3e
000002f0: 973b 2fbd 58ad 173d 743f bebd fc83 bdbd
00000300: a497 2bbe 6904 8f3d a264 8cbf 1246 f5bd
00000310: d486 6abe a4b1 803d b1da 72be 2a40 bdbe
00000320: 8569 913e 46ba 20be 578a acbc 56a2 6b3e
00000330: 293c b4be 396a 963d c4fd f83b 86d0 8abd
00000340: f7db 253e 9733 bfbd 8d2e 74be 16db 60bd
00000350: 80e8 05bd aeed c3bc 0e52 c83e 91c4 083b
00000360: eb65 cbbd f6c2 ab3c 4f9e 133f c866 28bf
00000370: 3224 b4be 1fba 8a3d 0029 ccbe a023 ef3d
00000380: 5ef8 353d 3530 91be 38ef 76bd 06a4 d9be
00000390: bbcd e63d 2558 9a3e 6bac abbd 1332 de3b
000003a0: d08e adbe 7f8d bebd 6c7b 07bf 9049 633b
000003b0: b019 dd3d 4bbd 223e 6683 703e 2e50 7bbd
000003c0: e10e a63e 2ab3 a1bd bbbe 653e a0d3 13be
000003d0: 135c 023d 0ea4 07be eefe febe d8e0 c6bc
000003e0: 4034 0a3d 6896 a7bd 9170 acbe f0b3 3d3d
000003f0: 787a e23e b825 eebd d4ca 18be 26cc 0f3b
-0.33847278 0.6411214 0.32013014 0.21567798 0.23162729 0.37321126 -0.42099553 0.041738175
-0.45690104 -0.010617582 0.34910625 -0.021128476 0.09798221 0.25567675 -0.23006551 -0.4216279
-0.7208996 0.024794776 0.08246898 -0.3169242 0.041234095 -0.3956727 0.13286267 0.052415203
0.0481389 -0.5065226 -0.84141123 0.28784302 -0.39443335 -0.17313753 0.078468256 0.3366634
0.058879443 -0.04194014 -0.08157353 0.38473803 0.06945386 0.011245405 0.6132763 0.10982192
0.43971536 0.37418202 -0.65119797 -0.45581955 0.41091838 -0.086195216 -0.20548095 0.6944052
-0.03244362 0.61157155 -0.24981508 0.14053492 -0.5437895 0.16092974 0.010983499 0.91521
-0.56498253 0.343904 0.5091364 -0.1601786 -0.4676809 0.35230538 0.14893064 0.15993795
-0.21231394 -0.4081532 -0.19514175 0.57569224 0.08940288 -0.30453554 0.20548098 0.04993641
-0.23096493 -0.16729306 -0.17751184 -0.18917309 -0.60392445 -0.7404377 -0.15745139 -0.43078947
-0.14247197 0.0016398586 0.010406025 -0.3830704 -0.36636668 0.6095673 0.09145145 -0.25044978
0.18541378 0.37392223 0.4407963 -0.5635615 0.31444037 0.29503512 0.10718518 -0.2668936
0.19831766 -0.4601646 -0.33875662 0.04924996 0.45888695 0.42340225 -0.18270627 -0.52235824
-0.53996325 -0.039463498 0.594146 0.12123745 -0.520127 0.09400589 -0.1568978 -0.53969264
0.57823926 -0.064557545 -0.23583636 0.7700938 0.35213113 0.2584345 -0.17289597 0.2748333
0.11379759 -0.4241146 -0.15845034 -0.016324654 -0.042378265 -0.65709704 -0.028372934 0.7268548
0.05034988 0.17358997 -0.31333396 -0.0029714971 -0.15541665 -0.1671302 0.1120404 0.031103984
-0.04844685 -0.09179267 0.18742071 0.27250698 -0.4261646 -0.23852119 0.13200133 0.11295318
0.07757701 0.0735621 -0.29337838 -0.18884748 0.021351209 0.016086081 0.22989619 -0.15542056
-0.09008082 -0.004482821 -0.3442293 0.12011411 0.23124218 0.24973556 -0.077351704 -0.072812416
-0.022754509 -0.07169138 -0.10295033 0.06653501 0.044172574 -0.1403475 0.049025927 0.05467722
-0.16932355 0.26347598 -0.048729602 0.19912748 -0.067732275 0.39458314 0.03846988 0.10623163
0.16707984 -0.0019160565 -0.44989005 0.13848276 0.16749986 0.057616502 -0.33762643 -0.1620152
0.19923955 0.002311605 0.12096667 0.39664754 -0.04278144 0.037030548 -0.092894465 -0.0925369
-0.16757065 0.06983263 -1.0968211 -0.119762555 -0.22902995 0.06283882 -0.23716237 -0.36963016
0.28400818 -0.15696058 -0.02106206 0.23011145 -0.3520215 0.07344479 0.0075986106 -0.06778054
0.16197191 -0.09336012 -0.23845883 -0.054896437 -0.032692432 -0.023917045 0.39125103 0.0020869116
-0.09931549 0.020966988 0.57663435 -0.6578183 -0.35183865 0.06773781 -0.3987503 0.11676717
0.044426315 -0.28357092 -0.06028673 -0.42507952 0.11269709 0.30145374 -0.083824955 0.0067808717
-0.3389802 -0.09304332 -0.529227 0.0034681298 0.10795915 0.15892522 0.23487625 -0.061355762
0.32433227 -0.07895501 0.22436039 -0.14436197 0.03182609 -0.13246176 -0.4980387 -0.024277136
0.033741236 -0.081829846 -0.3367963 0.04631418 0.4423406 -0.11628288 -0.14921123 0.002194175

lstm.bias_ih_l1 f4 [512]
00000000: e1de 39bf ab25 16bf b79b 0ebf ebe3 06bf
00000010: 7cf6 aabe 5640 1cbe c4b0 aabe 8b8f a0be
00000020: 2a72 9abe d440 dbbe 861d 0fbe 2729 24be
00000030: 539e a9be d6a2 5cbf 673e 6bbe cf65 6cbd
00000040: 27de 983e be6c bdbe 876b fc3d bbf8 1dbf
00000050: 82c9 d2be 4783 20bf a64d 0cbf 4265 22bf
00000060: 991e 9abe 6c9e 7ebe a44d 0dbf f9e9 e2be
00000070: d6f7 6f3e d0d6 9abe 2da1 2bbe 5261 55bf
00000080: d4e9 3abf 6fa2 16be 9565 d5be e1c9 26bf
00000090: 5204 5bbe 2e0a 55bf 4938 923d e6b3 903e
000000a0: ed71 383e 4cdc 043e f644 b7be 6251 7abe
000000b0: 9070 9cbe 8897 c0bc fe06 40be 0108 34bf
000000c0: 0d9f 1c3e c939 77be c6d1 1fbe bec9 89be
000000d0: 5be8 e0be b9bb 26bf a2b8 d7be 0cde 39be
000000e0: be55 e0be 17ab 26bf bb49 e5be 91d0 06bf
000000f0: 2b5d aebe 1392 4ebe af82 cfbe 9d9c debe
00000100: 8d15 f2bc a25b 5dbe 4731 9dbe 2362 37bd
00000110: c77d 06bf 8e81 1ebf 6329 cfbe fe29 08bf
00000120: 4056 ddbe 3e1a 23bf e2d9 1dbe 7e3f a3be
00000130: 9dcf ddbe 6572 88be 2879 bbbe 7d96 40bf
00000140: da13 5ebe 2c5b aabe eba4 c3be 15f5 fe3b
00000150: b53e 27bf 7a45 05bf bb1a 0bbf 7cb3 f3be
00000160: ee43 c6be 2d24 f6be 41f6 9ebb 76ea 40be
00000170: d797 99bd b35c dbbe 7d1d 24be 902e 833c
00000180: 3e11 57be 18d4 0bbf 2941 24be 1414 9dbe
00000190: 4007 58bf 1596 9bbe 2c8d fbbe 5566 20bf
000001a0: f288 453e dce2 02bf b325 fcbe 7a24 233e
000001b0: 5a6f d7be 3014 ecbe 82df 36bf 4777 89bd
000001c0: 2ab9 023d 23d1 40be 7784 49bd f46b abbe
000001d0: ced3 36bb 79ec 22bf 1fdd 99bd 10d3 a0be
000001e0: 3673 19be 6f7d 07bf d693 3e3c 9e86 02bf
000001f0: 9704 08bf 754b 88be b463 72be c37d 0bbe
00000200: 62fd 8d3e 1498 6ebd 4ba6 123e 6817 1abd
00000210: c143 983d 4ca8 8a3e 4f79 813d aade ee3e
00000220: f98b d73d 88f1 a1bd e234 143f 1022 45bc
00000230: e1b5 d93e 4e1b d3bd 05f7 b8bd 6d1f ba3e
00000240: 6fc5 473e 2565 22be 8d50 373f 20d4 56be
00000250: 6fe5 c8bd 387c 453e add3 d23e 12dd 53be
00000260: ebbd 823d b8e3 273e df45 663d ec2e e3bb
00000270: 5a27 503e 5f34 023e 235b 3e3e 48a5 213e
00000280: a762 06bf ed4a 503e 2490 8a3e d3d6 e43d
00000290: 7b11 b3bd 2a6f 3a3e ce71 eb3d c311 803e
000002a0: ee4c 503e 1701 9a3e dc5e 75bc b993 0d3f
000002b0: 02b9 22be 3fcb 993e 4451 e83e f98f 333e
000002c0: 7603 a8bc f3ec 26be 98d9 073d e807 5a3e
000002d0: d1c3 0d3f f265 69be f1b5 a33e 4ca7 e23e
000002e0: f553 8d3e d5cd 23be a8d1 8abe 6716 0d3d
000002f0: 808c da3d 4527 1cbd 13b6 513e 2a48 35be
00000300: 2b94 b8bd 027b 9e3d 5ff6 f63e 44b3 933e
00000310: 51bd 103f 77e1 86be 858e 023f 7757 2cbe
00000320: bd77 0b3e aefa 083f 2ede d63e ead1 6cbb
00000330: 2db4 abbd 071c c6bd f4fe f53d ecba 71be
00000340: dcc9 b1bc f2f3 a1bd c268 1fbe 0ad1 103f
00000350: c85b cb3e 9a3e 0c3e 1263 59be dffd 3dbe
00000360: 2290 37bd 8951 12be 9a4c c43d 7568 06be
00000370: 4df8 aa3d 2de6 82be be3f 19be 2a8f 1c3d
00000380: 9c6f e4bd a7b7 4bbe 614c 423e 9e66 bfbe
00000390: 333b 33be 13ff 3dbe e859 95be a718 19be
000003a0: 86e1 bc3e 3b44 103d bb88 c63e c98b 9dbd
000003b0: 91f9 c43e 1886 83bd 78fa 2bbd 70bd ad3e
000003c0: f7e6 8e3e 5358 f13d e634 c93d b92d 2f3e
000003d0: 1fab b33e d839 20be f2f1 8f3d 8026 3d3d
000003e0: c493 af3e db27 d13e c225 16bd bff8 5f3e
000003f0: 8f90 b9be b7b7 a3bd 9c4e a8be 4af1 92be
-0.7260571 -0.58651227 -0.5570635 -0.52691525 -0.33391178 -0.15258917 -0.33337986 -0.31359515
-0.30165225 -0.42822897 -0.13976106 -0.16031323 -0.33128604 -0.8618597 -0.22973023 -0.05771428
0.2985699 -0.36997026 0.12325197 -0.6170766 -0.41169363 -0.62700313 -0.5480598 -0.6343576
-0.3010147 -0.2486512 -0.55196595 -0.44319132 0.23434386 -0.30242014 -0.16760702 -0.83351624
-0.73013043 -0.14710401 -0.41679063 -0.6515179 -0.21388367 -0.8321866 0.07139642 0.28262252
0.18012209 0.12974662 -0.357948 -0.24445108 -0.30554628 -0.023509756 -0.18752667 -0.70324713
0.15295048 -0.24143137 -0.15607366 -0.2691173 -0.43927273 -0.6513019 -0.4213305 -0.1815111
-0.43815416 -0.6510481 -0.44782814 -0.52662 -0.34055457 -0.2017291 -0.4052939 -0.4347886
-0.029551292 -0.21616986 -0.30701658 -0.044771325 -0.5253567 -0.61916435 -0.40461263 -0.53189075
-0.43229866 -0.6371192 -0.15415147 -0.31884378 -0.4332246 -0.26649776 -0.36615872 -0.75229627
-0.2168726 -0.33272684 -0.3821176 0.007780681 -0.6533006 -0.5205914 -0.5433766 -0.47597873
-0.387237 -0.48074475 -0.004851133 -0.1883944 -0.07499664 -0.4284416 -0.16026874 0.016013414
-0.21002671 -0.54620504 -0.16040482 -0.3067938 -0.8438606 -0.3038794 -0.49131143 -0.62656146
0.19290522 -0.5112741 -0.49247512 0.15931883 -0.42077142 -0.46109152 -0.71434796 -0.067122035
0.031914867 -0.1882978 -0.049198594 -0.334808 -0.0027897242 -0.6364208 -0.075128786 -0.31411028
-0.14985356 -0.5292577 0.0116319265 -0.5098666 -0.53132004 -0.2662007 -0.23670846 -0.13622193
0.27732378 -0.0582505 0.14321248 -0.03761998 0.07434798 0.27081525 0.06321966 0.46654254
0.105247445 -0.079073966 0.5789319 -0.012032047 0.42521575 -0.10307942 -0.0903149 0.363521
0.19508909 -0.15858896 0.71607286 -0.20979357 -0.09809386 0.19285667 0.4117712 -0.206898
0.0638388 0.16395462 0.056218978 -0.0069330838 0.20327511 0.1271529 0.18589453 0.15785706
-0.5249428 0.20341082 0.27063096 0.11173787 -0.087435685 0.18206468 0.11496316 0.2501355
0.20341846 0.30078956 -0.0149762295 0.5530353 -0.15890887 0.30037877 0.453745 0.1753539
-0.020509463 -0.16301326 0.033166498 0.21292078 0.5537692 -0.22792795 0.31974748 0.44268262
0.27603117 -0.15996487 -0.2711308 0.034445193 0.106713295 -0.038123388 0.20479612 -0.1770331
-0.09012636 0.07738306 0.4823484 0.28847706 0.56538874 -0.2634389 0.5099872 -0.1683024
0.13619895 0.53507507 0.41966385 -0.003613586 -0.08383975 -0.096733145 0.12011519 -0.23606461
-0.0217027 -0.07907857 -0.15567306 0.5656897 0.3971846 0.13695756 -0.21229199 -0.18553875
-0.04481519 -0.14288916 0.09584923 -0.13125785 0.08348141 -0.25566235 -0.14965722 0.03822247
-0.111541 -0.19894277 0.18974449 -0.37382978 -0.17503051 -0.18554334 -0.29170156 -0.1495081
0.3689081 0.03522132 0.38776192 -0.076926775 0.38471654 -0.06422061 -0.041986912 0.33933592
0.27910587 0.11784425 0.09824543 0.17107286 0.35091493 -0.15647066 0.07028569 0.046179295
0.34292424 0.4085072 -0.036657102 0.21872233 -0.36243102 -0.07994025 -0.32872474 -0.28699714

lstm.bias_hh_l1 f4 [512]
00000000: e737 44bf c7ee 1abf 0637 31bf f51b 1abf
00000010: d87d 68be 7043 9fbd 1670 cebe a475 afbe
00000020: 3bf1 adbe df0e c5be b841 38be 4362 2abe
00000030: 5bbc a7be ba8c 5bbf bcc5 68be be51 11bc
00000040: f1f3 ac3e f36f dcbe 80c9 e5bc 1866 17bf
00000050: 789b e1be 0a98 17bf 29c3 18bf f20e 21bf
00000060: 0e08 93be 7420 a4be 5018 28bf 2906 b1be
00000070: a6ee 563e 6235 67be f159 eebd 78a9 31bf
00000080: 8f80 2ebf ddd6 44be 3a4b d5be 23ce 21bf
00000090: 6e9d 3dbe e990 41bf 8a0b 9dbc 29b2 853e
000000a0: 4f6b 863e 5e5d 0d3d d585 85be 0d56 3abe
000000b0: 8e9c bfbe f2d5 8cbd 3287 97be c9ab 29bf
000000c0: 9d37 ae3c cc02 a2be a0d9 cfbd dcc5 6abe
000000d0: c82d cdbe 51b3 13bf 2aff f0be d850 2abd
000000e0: 104a f4be a810 27bf 688c ddbe 113d 07bf
000000f0: 1152 93be 3dcd 3abe 64ff a1be bb8b f4be
00000100: 9478 d8bc 9b70 14be 7bc0 9fbe 671a 35bd
00000110: 930e 24bf 8a1e 16bf e114 00bf d475 02bf
00000120: 4cbc c0be 24b3 14bf d462 39bd 036f 90be
00000130: 7c17 d4be 3057 4cbe 1349 aebe 88aa 41bf
00000140: d896 87be 6ec8 60be 3185 bcbe b70d c13d
00000150: 0184 39bf ead1 e6be 5176 f9be 3469 d5be
00000160: 7eee b7be df44 f3be 36f7 623c d9bc 75be
00000170: 22a0 9a3d 11db fbbe 9522 61be 2374 f03d
00000180: cc97 4dbe 7dec 28bf a10e 82be 0fa2 bbbe
00000190: 4c4a 50bf 59cd c3be 97e5 fabe dee7 11bf
000001a0: d0e1 2c3e 44d5 f9be d863 1cbf 4820 043d
000001b0: dd92 95be bbb5 c7be d71c 40bf b51d a2bd
000001c0: bcf3 09bd 173f 5cbe 35ad 98bd 32ff dfbe
000001d0: 9ca9 37bd 8b30 1fbf 6f79 8b3d c45f 35be
000001e0: 7887 85bd 8de7 11bf c10a b4bc 14f7 04bf
000001f0: c421 13bf e0cc 15be e912 1dbe fbe7 15be
00000200: bf94 9b3e ec8b 2cbe cc2e f63b edda 11bd
00000210: aee2 093e d9f5 a23e e9f7 1e3e 461b ee3e
00000220: bd5e 8d3d 03b3 aabd 4863 343f e14f 103e
00000230: 9d05 9f3e 155b c1bd db1e 47be 2b63 713e
00000240: 128d 3d3e aeb0 81be 0496 183f 8d90 80be
00000250: d4f5 12be 98dc 983e 1adf b43e 9a73 6bbd
00000260: 0df5 ef3d 9966 353d 36c7 193d 6180 143c
00000270: 3597 953e a6a0 fb3d 0281 853e 5d92 273d
00000280: e7d2 dcbe eba6 123e c1c2 c43e c0cf 9f3d
00000290: f25a 90bd 8579 633e b345 033e 2a39 6b3e
000002a0: 73ee 7b3e 471c c03e 4075 07be ecef fe3e
000002b0: 6cf4 19be 3b1d 1a3e b936 fd3e b17a ce3d
000002c0: d311 293d de2f debd df8a 5a3d 28d7 da3d
000002d0: e9fc e93e ca02 85be 018d b43e c153 aa3e
000002e0: 3f4a 863e 403e b5bd 8d8f 76be 4773 183e
000002f0: b308 b03d b229 d13b 3e80 a43e 1d21 41be
00000300: 0ea4 02be 111c b93d 74e3 cb3e bb9a 273e
00000310: b8c0 103f ffbd 87be 0823 0f3f 4271 80be
00000320: 89f5 253e 6581 023f 0dc8 dc3e 9635 00bb
00000330: 358c 8cbd 1385 0dbe 29ac 723d f355 47be
00000340: add6 f4bd a38f 98bd af8b 80be e45c 1e3f
00000350: 5d36 ee3e 8684 113e a180 dcbd 6df2 70be
00000360: d911 a03d 9519 29bd 3fb8 733e d339 e4bb
00000370: 21be 6a3d 6109 00be 2c18 27be 1cd6 d63d
00000380: 0f1d 1abd 625a 39be cdc2 1a3e dc14 a5be
00000390: 2804 09be 1ff8 93be c7ae 64be e61e bc3b
000003a0: 7f7d cd3e 4527 01bd 0b9c 9f3e 1231 94bd
000003b0: e820 cf3e 984e 0abe 9492 3fbe 9179 a53e
000003c0: 9eea 8e3e 18c2 4e3e ddde 423e 7f9c 543e
000003d0: 4fc6 033f 5696 32be 4e9a 0cbd 4960 8ebc
000003e0: acfd 933e 3923 ca3e db38 b4bd bcd3 6f3e
000003f0: 97fd d7be d127 ffbd 64e8 cbbe 696c d5be
-0.766478 -0.60520595 -0.69224584 -0.6019891 -0.22704256 -0.077765346 -0.4031989 -0.3426944
-0.33973107 -0.38487908 -0.1799382 -0.16639046 -0.3276089 -0.85761607 -0.2273168 -0.0088695865
0.33779863 -0.4305416 -0.028050184 -0.5914016 -0.44063926 -0.5921637 -0.5967279 -0.6291343
-0.28717083 -0.3205601 -0.656621 -0.34575012 0.20989475 -0.22578958 -0.11638249 -0.69399214
-0.68164915 -0.19222589 -0.41658956 -0.63205165 -0.18517086 -0.7561174 -0.019170541 0.26112488
0.26253745 0.03451287 -0.26078668 -0.18196888 -0.3742413 -0.06876744 -0.29595333 -0.6627775
0.021266753 -0.3164276 -0.101489305 -0.2292704 -0.4007399 -0.5769549 -0.47069675 -0.041581005
-0.47712755 -0.6525979 -0.43271184 -0.52827555 -0.2877355 -0.18242355 -0.3164016 -0.47762856
-0.026424684 -0.1449608 -0.31201538 -0.044214632 -0.6408474 -0.5864035 -0.5003186 -0.5096104
-0.3764366 -0.58085847 -0.045260265 -0.28209695 -0.41424167 -0.19955134 -0.34040126 -0.75650835
-0.26482272 -0.21951458 -0.36820367 0.09426444 -0.72467047 -0.45082027 -0.4872308 -0.41681826
-0.35924143 -0.47513482 0.013852885 -0.23997821 0.07550074 -0.49190572 -0.21985848 0.11740901
-0.20077437 -0.6598585 -0.25401786 -0.36647078 -0.8136337 -0.38242605 -0.49003288 -0.56994426
0.16883016 -0.4879552 -0.6108985 0.03225735 -0.2921361 -0.39005837 -0.75044006 -0.079158224
-0.03367971 -0.21508442 -0.074549116 -0.43749386 -0.044839486 -0.62183446 0.06810271 -0.17712313
-0.06519979 -0.56993943 -0.021977784 -0.5193951 -0.574734 -0.14628935 -0.15339245 -0.14639275
0.30386922 -0.16850251 0.007512903 -0.035609175 0.13465378 0.31828192 0.15524258 0.46505183
0.069028355 -0.08334925 0.7046399 0.14092971 0.3105897 -0.09441201 -0.19445364 0.23572986
0.18510845 -0.25330108 0.59603906 -0.25110283 -0.14351588 0.298558 0.35326463 -0.057483293
0.117166616 0.044287298 0.037543498 0.009063811 0.29216924 0.12286501 0.26074988 0.040911067
-0.43129656 0.14321487 0.38429835 0.07803297 -0.070485964 0.22214325 0.12819557 0.22971025
0.2460268 0.37521574 -0.13228321 0.4979242 -0.15034646 0.15050213 0.49455813 0.10081995
0.041276764 -0.10848974 0.053355094 0.10685569 0.45700768 -0.2597869 0.35263827 0.33267024
0.2622852 -0.08849764 -0.24078198 0.14887725 0.08595409 0.0063831443 0.3212909 -0.18860288
-0.12757894 0.09038556 0.3982197 0.16367619 0.56544065 -0.26512143 0.5591283 -0.2508641
0.16206945 0.5097869 0.43121377 -0.001956319 -0.0686268 -0.13820295 0.059246216 -0.19466381
-0.11955009 -0.074492715 -0.2510657 0.6186049 0.4652585 0.1421071 -0.107667215 -0.23529978
0.07815904 -0.041284163 0.23800753 -0.006964901 0.057310227 -0.12503578 -0.16317815 0.10490057
-0.03762537 -0.18100885 0.15113373 -0.32242477 -0.13380492 -0.2890024 -0.22332297 0.005740988
0.40134808 -0.03153159 0.3117374 -0.07235922 0.40454793 -0.13506544 -0.18708259 0.3231931
0.27913374 0.20191228 0.19030328 0.20762824 0.5147447 -0.17440161 -0.034326844 -0.017379897
0.28904474 0.39479998 -0.08799907 0.23420614 -0.4218566 -0.12458766 -0.39825737 -0.41684273
